etc/models/fm-classifier.onnx (onnx, 43639 bytes, 10 tensors)

linear1.weight f4 [128, 32]
00000000: 7a6f b8bd 390f f3bd e615 d23d ebff ee3d
00000010: cdba 493e 58ef 49be 03f3 7e3d 636f efbe
00000020: 3bcd b53d d5ba 483e 441b 513e 51e0 6b3e
00000030: 4b37 593e 4cef ac3e 8d56 1e3e bc23 7bbe
00000040: 541f c83d 8128 ed3a c5e9 b2be bf25 a73d
00000050: 2fa1 e43d 276a 0dbf 6ba7 483d a559 4fbf
00000060: 66aa 573e 4d54 3e3e 7113 40bf 4ca4 b1be
00000070: 223d acbd 38b5 933b b32e 0f3e 62f7 9b3d
00000080: 11b6 433e dc49 b1be e9b1 b1bd b7c7 1b3e
00000090: 260f 103e a967 5bbe 9ddf 533e 4cf5 ae3d
000000a0: 730f 98bd e8b6 863c cb94 063e b321 803e
000000b0: 1309 94bd 449a 16bd 9910 d43d 5426 9cbd
000000c0: 644c be3d 7033 643e 00d2 06bf 3eff 4c3d
000000d0: 5f0f 99be 9f51 43be cd07 8c3e 04f4 4f3e
000000e0: 1033 033d c11e 4bbe e0dc afbe 19ea d4be
000000f0: 8367 69bd c7d5 9bbe 4e85 da3d 9d0b dc3d
00000100: 6bfa 8dbd 7f3d 4a3e 3af6 3c3e 4f0b acbe
00000110: f639 10be 5780 9a3d 33ac ad3d c83f 223e
00000120: 2c59 7abe 5ea0 7e3e 5988 9a3c dd2d 22be
00000130: 4dc3 a7bd 4be8 953d 3939 f8bd 5bcb d4bb
00000140: 1872 8c3d e96a 9c3e 8d3a 8d3d 23e5 b1bd
00000150: bd19 49be b727 623e cb77 903c 77a8 03be
00000160: 05f6 963e 6bfc 69be eb8d c43e bfd9 14be
00000170: 8037 a33e 8027 eebe 6292 813c 6b5a 4c3e
00000180: d717 25be 8bbd 23be 3103 6abe 029e 4abe
00000190: 95ea a13d 6dc9 873e 51ac 4fbe 7b1d a3bd
000001a0: 0a3c 00be b4ca 8ebe 5777 83be 56be c2be
000001b0: 1d7e 43bc 1cda 88be d021 20be c0cd 07be
000001c0: 4b85 b63d d856 093e 4862 bd3e e39d 04bf
000001d0: 45c9 a73d 2c98 13bf a0ab c5bd 6efa 483e
000001e0: 14f7 ce3d 85dc db3e 1518 0b3d 1516 81be
000001f0: 1408 3e3e 4825 7f3e a1d2 c2be e5ce 50be
00000200: 62e1 b9bd 2ca3 b43d 7d63 c8bd 34a4 dd3e
00000210: c178 01bd aa11 66bf 5d05 9a3c b0c1 1dbf
00000220: edd3 a0bd d277 ca3c 1d16 eebd 7083 4b3e
00000230: 46c0 60be da47 b9be 02df 14be 0f11 a6bd
00000240: 7f0f 193e c9cc c43d 5d13 23bf f266 03be
00000250: 457d 12bf 1b1f febd 9ad9 5e3d f826 04bd
00000260: e7c5 89bc 7c91 a4be b07e 453e a382 ecbe
00000270: 44f8 9a3e 2aa4 97bd 78ab 2abe e632 07bd
00000280: 3410 67be e511 b43c 0e9c d63d b96f 023e
00000290: 3c1e 5b3e 0aa2 a9be d2de 9e3e f419 043e
000002a0: 7380 fb3b 52ae 923d b87b cf3e 6e53 6dbc
000002b0: a264 0b3d 2b76 ac3e dab2 1cbe d41b 03be
000002c0: e9a9 f3be 8cf2 853e 2f2a 403d 2342 50be
000002d0: 1438 d63d 3c87 51bd e5e7 f13d e4d1 403d
000002e0: 147b 7bbe d838 93be 9434 603e 8a77 ab3e
000002f0: 8862 4e3e 758a bfbd 7050 11be 9cec a5be
00000300: b478 7b3d e31e 073d 38ff f2be 3ac5 f13d
00000310: 62c6 2cbf df42 243e f7aa 8abc 54b4 08be
00000320: e03e 873e 5d71 373e 3d54 573e a098 533d
00000330: f922 16bf b6e3 4cbe fe3c e4bb 3916 f5be
00000340: 7540 583d d8a4 343e a385 1d3e 40ec 8bbd
00000350: 9751 c6be 15ea 9cbd 3cac 29be 43b0 813b
00000360: 58a5 83bd 388a f63d 8695 45bc 2b9f fe3d
00000370: 554a 443d 8513 563d eb57 883e 175c 753e
00000380: 0f6b b23d db89 9b3e 7253 7f3e 1364 903e
00000390: 5677 79be a097 373d 875e 943b 32d1 603d
000003a0: 2717 013e 0e87 e4be 85dd 13bf 879e 80be
000003b0: 15d3 e73d 10b8 8bbe ca7a 953e 6ccb 2abe
000003c0: 77f1 6ebf 4ac7 393d ab46 2f3e 8ab2 49bd
000003d0: 132d d0bd 5458 0abe f446 eabe 40e3 e9bd
000003e0: 5748 4ebf 5130 033e 41df b5be f44a 853e
000003f0: c393 55be 1403 04bf b562 4dbd 9b1e b23c
-0.090056375 -0.11868138 0.10258083 0.11669906 0.19700165 -0.19720209 0.062243473 -0.4676467
0.08877035 0.19602521 0.20420557 0.23034789 0.21212499 0.3377632 0.15462704 -0.2452535
0.097716 0.0018093736 -0.34943977 0.08161496 0.11163556 -0.552401 0.048987787 -0.8099616
0.21061096 0.18586846 -0.75029665 -0.3469566 -0.08410098 0.004507687 0.13982658 0.07615544
0.19112422 -0.34626663 -0.08676512 0.15212904 0.14068279 -0.21426262 0.2069077 0.085428804
-0.07424822 0.016444638 0.13142698 0.2502571 -0.07228293 -0.036768213 0.10354728 -0.07624498
0.09291914 0.22285247 -0.52664185 0.050048105 -0.2989454 -0.19074105 0.27349702 0.20307928
0.03203112 -0.1983595 -0.34348202 -0.41584852 -0.056983482 -0.30436537 0.10669957 0.107444026
-0.06932529 0.19750021 0.18453303 -0.33602378 -0.1408461 0.0754401 0.0848011 0.15844643
-0.24448079 0.24865863 0.018863844 -0.15837808 -0.081915475 0.07319697 -0.12120289 -0.0064939684
0.06857699 0.30550316 0.06895933 -0.086862825 -0.19638725 0.22085463 0.017635247 -0.12857233
0.29484573 -0.22850196 0.38389525 -0.14536189 0.3187828 -0.4651451 0.015816871 0.19956367
-0.16122375 -0.15990274 -0.2285278 -0.19786838 0.07906071 0.26520863 -0.20280577 -0.07964607
-0.12522903 -0.27889025 -0.25676987 -0.3803584 -0.011931923 -0.26728904 -0.15637898 -0.13262081
0.08912142 0.13412035 0.36989045 -0.51803416 0.08192686 -0.5765407 -0.096518755 0.19626781
0.1010572 0.4294168 0.033958513 -0.2521216 0.18557769 0.24916565 -0.38051322 -0.20391424
-0.090761915 0.08820185 -0.09784601 0.4328934 -0.0316093 -0.89870703 0.018801386 -0.6162367
-0.07852922 0.024715338 -0.116253115 0.19874358 -0.21948346 -0.3618763 -0.14538196 -0.081087224
0.14947318 0.09609372 -0.6370142 -0.1283224 -0.57222396 -0.12408277 0.05440674 -0.032263726
-0.016818 -0.32142246 0.19286609 -0.46193418 0.30267537 -0.07404359 -0.16666973 -0.033007525
-0.22564775 0.021981189 0.10478984 0.12737931 0.21398252 -0.33131438 0.31029373 0.12900525
0.0076752244 0.07162155 0.40524077 -0.014485223 0.034031518 0.33683905 -0.15302601 -0.12803584
-0.4759057 0.2616161 0.04691523 -0.20337729 0.10459915 -0.05115436 0.118118085 0.047075167
-0.2455867 -0.28754306 0.21895057 0.3348964 0.20154774 -0.093525805 -0.1419084 -0.3240708
0.06139441 0.03298844 -0.4746034 0.11805196 -0.6749021 0.16041134 -0.016927226 -0.1335004
0.26415157 0.17914338 0.21028228 0.051659226 -0.58647114 -0.2000874 -0.0069652786 -0.47868517
0.052795846 0.17641008 0.1538301 -0.068321705 -0.38734123 -0.07661835 -0.16569608 0.0039577796
-0.06428021 0.12038082 -0.012059575 0.12432703 0.04792245 0.05226471 0.26629576 0.2396091
0.08711826 0.30378613 0.24934176 0.2820135 -0.2436193 0.044822335 0.00452787 0.054887004
0.12606488 -0.4463429 -0.57759887 -0.25120947 0.113195576 -0.27288866 0.29195243 -0.16679162
-0.93337196 0.045356072 0.17116801 -0.049242534 -0.10164847 -0.13510257 -0.45757258 -0.114202976
-0.8057913 0.128114 -0.35521892 0.26033747 -0.20857148 -0.51567197 -0.050142962 0.02174311

linear1.bias f4 [128]
00000000: 915f 1fbe ae44 a53e 855a 56be 70f0 813d
00000010: eeee 983d 5b79 1fbe 383f 4fbd 5d13 183e
00000020: 7c69 7bbc 9152 093e cc3d 923d 6995 db3d
00000030: 9537 043e afae 62be bcb5 943e 268e 81bd
00000040: a079 433e 2520 7cbe a379 0fbe 00f7 c33d
00000050: b242 693e a143 1ebe a4cc 28be 0897 7d3e
00000060: 2ec2 323d 097c f63d 50ca 7f3c 76da e63d
00000070: 0672 683e 5f40 07be f1ce 9d3e 375a 78be
00000080: 7025 0bbe ec64 c7bd b7af af3c bd13 a83e
00000090: 842b 65be 35cd e93d efae 853c d0d1 883e
000000a0: 0fe6 67be b11e 013e 208c 50bd 776f 1ebe
000000b0: 20d5 193e ba9e 0ebd ae9b b4bd 2dd1 803d
000000c0: ef6d 8b3d 023e 4abe 95b9 22be 1d38 8cbe
000000d0: cb1a 833d f0ab 31bd 5301 263e 1fbd 37be
000000e0: 26f1 4b3e 7bad 9ebe bd12 a83e 203d 633e
000000f0: 4360 883e 6946 8d3e ce0b babe d9b2 803c
00000100: 3dd2 84be f030 993d eaa9 4abe 5a32 773d
00000110: 94eb 1bbe dfca 0bbe bb8a 18bd 7c72 fd3c
00000120: 4ab3 9f3d 348a 963e bfaf 02be e0d4 813d
00000130: 8d9d 983d e3bd cc3d bc5b d2bd 8389 963d
00000140: a124 883e ee14 793e a003 ab3d 1cc4 a53d
00000150: b589 0f3d 6d1d 0abd e2a7 0dbd e837 bcba
00000160: 9734 cfbc fd2a 803e 88cf 093c 2336 2a3d
00000170: 68a2 9fbe 1d5c 25bc 071a 04be 7d2b 05be
00000180: ab36 5ebe faca ab3e bb08 213e 837f 6abe
00000190: 34a1 9bbe 98a5 5dbe f1c0 323d fbab 723d
000001a0: eb0d f8bc eddc b63d 9562 e33d ca7c 9b3c
000001b0: 7e9a 1b3e 8f2d 94bc ea6a adbe 4698 7f3d
000001c0: 72e1 f53d 0967 103d 52b2 a93d 0bfc abbe
000001d0: 9493 ad3d 63e4 2cbe bbfd 8e3d 7eaf 703e
000001e0: a477 48bc 4ed6 01be 99bf dd3d 5de2 1f3e
000001f0: 02cf 983e 6991 9b3d 9490 083f 1e45 ad3c
-0.155638 0.3227896 -0.20932968 0.06344688 0.07467447 -0.15573637 -0.0505974 0.14851137
-0.015344974 0.13410403 0.07140693 0.10721857 0.12911828 -0.22136949 0.29044902 -0.06325941
0.19089365 -0.24621637 -0.14011244 0.09568596 0.22779348 -0.15455486 -0.16484314 0.24764645
0.043642215 0.120353766 0.0156122 0.11272137 0.22699746 -0.1320815 0.30821946 -0.24253164
-0.135885 -0.09736046 0.021446092 0.3282756 -0.22379881 0.11416093 0.016318766 0.26722574
-0.22646354 0.12609364 -0.050914884 -0.15472208 0.15022707 -0.034819342 -0.08818756 0.06289897
0.068080775 -0.19750217 -0.15891106 -0.2738656 0.06401595 -0.043376863 0.16211443 -0.17943238
0.1991621 -0.3099173 0.32826796 0.22191286 0.26635942 0.2759278 -0.3633713 0.015710281
-0.2594165 0.07480037 -0.1979138 0.060350753 -0.15226585 -0.13651608 -0.03724168 0.03093838
0.077978685 0.29402316 -0.12762354 0.06339431 0.074519254 0.099971555 -0.10271403 0.07350447
0.26590446 0.2432439 0.08350301 0.080940455 0.035043437 -0.03371947 -0.034583934 -0.0014359923
-0.025293631 0.25032797 0.008411296 0.041555535 -0.31178594 -0.010092762 -0.12900554 -0.1300487
-0.21700542 0.33553296 0.15725987 -0.22900204 -0.30396426 -0.216452 0.043641035 0.059246045
-0.030280074 0.08928857 0.111027874 0.018980402 0.15195653 -0.01808813 -0.3387063 0.06240108
0.12005891 0.035254512 0.08285965 -0.3359073 0.08475414 -0.16883998 0.06981989 0.23504445
-0.012235556 -0.12679407 0.1082756 0.15613694 0.29845434 0.07596094 0.5334561 0.021151122

linear2.weight f4 [3, 128]
00000000: 5996 873d 5e4d 973e 9bd2 78bc 3e8b 95be
00000010: 3b3d 213f d6d9 15be 6070 053e 99d8 033f
00000020: d2e6 da3d 7fb0 debc 2710 c3be 9bcc cabd
00000030: dd60 213d aa21 423e ee85 253e f711 cc3e
00000040: cc15 7bbe fd2f 9fbe 538f 68be 6b97 da3b
00000050: 77b7 123e 8847 863d 3bb0 75be b835 51bb
00000060: 306c a73d 9d0b c7bc 653c 353e 37ee 0c3f
00000070: fb22 1d3e 22a7 6f3e 707c fd3d 28ba 1dbc
00000080: ada3 b3bd 973e edbe a9da 113e e25e 9cbe
00000090: 9c23 2d3f f7fd 00be 15a4 793d a2ab d2bd
000000a0: a76c 9c3b cc20 f0be 7992 423e 1049 ef3e
000000b0: e11d 64be 37c6 673e a2e9 463e 8bd8 ccbe
000000c0: 954c 94bd 7dae a3be 1671 08be 9e33 4cbe
000000d0: 83f3 84be d605 66bd ba1b 343e e675 b9be
000000e0: 122a 1d3e 66d3 ffbe 1498 efbe 389a e2bd
000000f0: ac8c 223d 959e 963e 009b fb3e dde6 3abe
00000100: fac5 bdbe ab8f c7bb b143 213e d924 15be
00000110: 0053 bebe 2522 933e 9a49 03bd cf7b 91be
00000120: 870b 163e 96a8 c7bd 8a2c d9be fefe 9bbe
00000130: b135 ad3d be6b 40be 2174 0dbe 08f6 663c
00000140: 9c9f 80bd 11b8 1f3e 4345 38be 6b25 f33d
00000150: 83ea 893e b622 dd3d 9c51 a5be 1f0b bf3e
00000160: 8f9b 033f ee56 453d 952b 2c3f 36af 69be
00000170: 56ae 0bbf 0f58 44be 0393 93be 2ffa 963d
00000180: 8c7c 0a3e 6b78 12bf ce6d d8bc a2d5 e8bd
00000190: bf13 cdbe 8ce7 41bf 0894 43be 038c 32be
000001a0: 45da f33d 1eaa 67bd a787 d9be 5540 f53e
000001b0: ced1 98be 180f f3be e017 7b3e e880 03bd
000001c0: e32f 13bd fa19 82bd 9fd8 b0be 1c23 743e
000001d0: 129f dbbd 77a0 93be 667e e0be 4dcd 96be
000001e0: 5686 143e ef61 a03e f5de 38bd 29b5 e33d
000001f0: 9d9f f13e 6ee0 873e 2785 07bf ea82 80bd
00000200: 2f69 553e c34a 57bd 490b 90bc e1c5 f0be
00000210: 0b7e acbe 1ae5 5bbe e822 073e 6d75 dfbe
00000220: 4392 bd3d 152f 76be 3986 a83e 7b6e 81be
00000230: c0e5 a33d e2d5 2ebc 49e0 ae3d f1e4 d1be
00000240: 8be3 edbe ae4b bb3e c849 6fbe 23a2 913e
00000250: bba2 b9be 8635 e6bd f721 6f3e 1df5 213e
00000260: 5d8c ea3d 910f 853e 7650 e9be c421 edbe
00000270: 79fa bf3d 418b 26bd 561f 3d3e 5f65 003e
00000280: 88da 1ebe 6c2d bb3d cf97 51be bf31 523e
00000290: cb66 a1be 29fc 493e 98b8 55be a003 b53e
000002a0: ffa5 2c3e 2e2f 23be cfca c4be 8552 afbe
000002b0: 5b77 1b3f 50a4 c2be 6900 4cbe 3aec 123c
000002c0: 800f 97be 547a 11bf 65d1 b3be d183 a6be
000002d0: c777 abbe 4cd3 62be 575a 84be 7447 bf3e
000002e0: c5a6 90be 1144 293f 0ae0 a13e 1cfb 1b3f
000002f0: cff7 25bf a954 b9bd b03d c1be 5e21 1c3d
00000300: c325 b03d bc1d 083e 4e0f 2a3e 55e1 89be
00000310: f58b 813b a1e6 9bbe 5946 1dbe a20a f9be
00000320: fb15 19bf b413 bc3d 7b71 b83b 4ef0 8a3e
00000330: 84b8 713d 8268 9cbc bbb4 36bd 5016 29be
00000340: 09fc 533e 7a74 d53d eef8 0ebe 9b24 f93d
00000350: e60f 2fbe 661b 45be 9e81 f53e aa02 d6bd
00000360: 8b99 04bf 188e 01bf fbdd b2be 10b5 b4bd
00000370: d342 ec3e 70ea b93e e248 74be 7dc9 13bd
00000380: 449c 953d ce4f 9a3e 6c12 253e d590 73be
00000390: ec60 313f 5296 853e ca7a 943d 422d b03c
000003a0: 3ba2 9dbd d1d2 f9be 7140 d63e 08fc f7be
000003b0: a69d a1be ceb7 3c3f ff89 05be fc94 113e
000003c0: 2ddd eb3e 78f1 11be 182a d7bd bbf7 e1be
000003d0: 70de d63b dfe2 8fbd 298f 713e 709d 2a3e
000003e0: 3239 83be e0f9 edbc 8c16 043e e177 943e
000003f0: 8db5 cfbe d5fe 02bf ac93 1f3f b3d9 ef3d
0.066204734 0.29551214 -0.015186931 -0.29207796 0.62984055 -0.14633879 0.13031149 0.51502377
0.10688557 -0.02718377 -0.3809826 -0.09902307 0.039399017 0.18958154 0.16164371 0.39857456
-0.24520034 -0.310913 -0.22710924 0.0066708825 0.14327799 0.06556612 -0.23993008 -0.0031922888
0.08174932 -0.02429753 0.1769882 0.55050987 0.15345375 0.234036 0.1237725 -0.009626903
-0.08771453 -0.46336815 0.14243568 -0.3054114 0.6763246 -0.1259688 0.060947496 -0.102866426
0.0047736946 -0.46900022 0.19001187 0.4673543 -0.22277023 0.22634207 0.19425061 -0.4000896
-0.07241169 -0.31969061 -0.13324389 -0.19941565 -0.25967035 -0.05615791 0.17588702 -0.36222762
0.1534808 -0.49965972 -0.46795714 -0.11064571 0.039684936 0.29417863 0.49141693 -0.1825213
-0.37065107 -0.0060901246 0.15748478 -0.14564838 -0.371727 0.28736988 -0.032052614 -0.2841477
0.14652835 -0.09748952 -0.42416793 -0.3046798 0.084575064 -0.187911 -0.13813831 0.014096744
-0.06280443 0.1559756 -0.17995171 0.11872371 0.2693673 0.10797636 -0.32288826 0.37313172
0.5140924 0.048178606 0.67254 -0.22820744 -0.5456289 -0.19174217 -0.288231 0.073719375
0.13524073 -0.57214993 -0.026419546 -0.11368872 -0.40054128 -0.7574394 -0.19099438 -0.17436223
0.11906866 -0.05655872 -0.42486307 0.47900644 -0.29847568 -0.47472453 0.24520826 -0.032105356
-0.03593434 -0.06352611 -0.3454027 0.23841518 -0.107237 -0.28833362 -0.43846434 -0.29453507
0.1450437 0.31324717 -0.045134503 0.11118538 0.47192088 0.26538414 -0.5293755 -0.0627497
0.20840906 -0.052561533 -0.017583506 -0.4702597 -0.33689913 -0.21474114 0.1319691 -0.43644276
0.09256413 -0.24041398 0.32914904 -0.25279602 0.08002806 -0.010671111 0.08538873 -0.4099498
-0.46462664 0.36581177 -0.23367989 0.28444013 -0.36256966 -0.112406775 0.233528 0.1581616
0.114525534 0.2598844 -0.455692 -0.46314824 0.09373946 -0.040660147 0.18468985 0.1253867
-0.1551305 0.09139523 -0.20468067 0.20526789 -0.31523737 0.19725098 -0.20871198 0.35354328
0.16860197 -0.15935966 -0.3843598 -0.34242645 0.60728997 -0.38015985 -0.19922031 0.008967454
-0.29504013 -0.5682728 -0.35120693 -0.32522443 -0.3348982 -0.22150916 -0.25850174 0.37359202
-0.28252235 0.66119486 0.3161624 0.6093004 -0.6483125 -0.09049351 -0.37742376 0.03811776
0.086009525 0.13292593 0.16607401 -0.26929727 0.0039534518 -0.30449393 -0.15358867 -0.48640925
-0.59799165 0.091834456 0.0056287623 0.27136463 0.05901386 -0.019092802 -0.04460595 -0.16512418
0.20701613 0.10422607 -0.13962147 0.12165185 -0.17095909 -0.19248733 0.47950453 -0.10449727
-0.5179679 -0.5060744 -0.34934983 -0.088235974 0.46144733 0.36311674 -0.23855928 -0.036080826
0.07305196 0.3013901 0.16120309 -0.23785718 0.69288516 0.26091248 0.07249983 0.021505956
-0.07696959 -0.48793653 0.4184604 -0.48434472 -0.3156559 0.73717964 -0.13040923 0.1421699
0.4606718 -0.1425227 -0.105060756 -0.44134316 0.0065572783 -0.07025694 0.23589768 0.1666162
-0.25629574 -0.029049814 0.12899226 0.2899771 -0.405682 -0.5117009 0.62334704 0.11711445

linear2.bias f4 [3]
00000000: bc0b c63d e09a fabc f368 913c
0.09670207 -0.030591428 0.017750239

onnx::Conv_40 f4 [8, 1, 3, 3]
00000000: 2a18 ed3e 16d2 ed3e 4720 1d3d 4ae2 2e3f
00000010: f1d5 233f 0722 6a3f d2ce b2be 3439 343e
00000020: d973 183f a4be 78bf ff73 65be 71ba f73e
00000030: ff5c 03bf d262 113f 7e14 2e40 ad0a d3be
00000040: d132 333f c3d7 e93f 51b7 3d3f c6cd 2d3f
00000050: ec68 9c3e 1751 47be 1a82 3bbf 2188 29be
00000060: a8ae 77bf a9f4 a3bf fd3c 99bf a3e5 5cbf
00000070: d47b e8bf 081e 4bc0 2e60 0d40 2c24 9c3f
00000080: fa31 2d40 6690 51bd 6337 24bf 06db 793f
00000090: 00a2 263f 69ab 053f 83cc 203f fa76 7fbd
000000a0: db4e 3e3f e8a2 fa3e a08e 273e 1af5 0e3f
000000b0: a717 26bd 94df ed3c 6b07 66be 1ec4 adbe
000000c0: bab6 23be 9fa1 85bf 7d00 d9bf 89b4 223e
000000d0: aa76 f3be faae 9dbe 5555 b53f b5b0 f83f
000000e0: 9cc3 df3f fca2 4b3f 845b ac3f 0b0d 8cbe
000000f0: f194 fcbf 0917 43c0 1985 eebf 0e78 e83e
00000100: 82cf e33e 0b0e 983d 649c 3abf 4d2a 25c0
00000110: 207f 90c0 0499 3dbe 3213 2d40 fbf7 7740
0.46307498 0.46449345 0.03836086 0.6831404 0.63998324 0.9145817 -0.34923416 0.17599946
0.5955177 -0.97165895 -0.2240753 0.4838443 -0.51313776 0.5679141 2.7200007 -0.41219082
0.69999415 1.826897 0.74107844 0.6789211 0.305488 -0.19464527 -0.73245394 -0.16555835
-0.9675088 -1.2809039 -1.1971737 -0.862879 -1.8162789 -3.173708 2.2089953 1.2198539
2.7061753 -0.0511631 -0.64147013 0.9759983 0.6509094 0.52214676 0.6281206 -0.062369324
0.74339074 0.48952413 0.16363001 0.55842745 -0.0405499 0.029037274 -0.22463767 -0.33938688
-0.15987673 -1.0439948 -1.6953274 0.15889181 -0.4755147 -0.3079756 1.4166666 1.9428927
1.748157 0.7954557 1.3465428 -0.273537 -1.9732953 -3.048281 -1.8634368 0.45404094
0.44494253 0.074245535 -0.72894883 -2.5807068 -4.515518 -0.18515402 2.7042966 3.8745105

onnx::Conv_41 f4 [8]
00000000: 136c 05c0 7542 58c0 d5f4 0040 e4c8 d8be
00000010: 41e0 25c0 b6aa 2140 7141 f33e d671 943d
-2.0847213 -3.3790562 2.0149434 -0.42340767 -2.5918124 2.5260444 0.47510865 0.07248275

onnx::Conv_43 f4 [16, 8, 3, 3]
00000000: d398 a0bd 62f0 26be 0fc2 2cbe 1ba9 393d
00000010: b9c6 563d b116 fbbd 3d5f 6f3d 2679 82bd
00000020: d514 dbbd 1c4f e1bd 06fd 13be e350 15be
00000030: eb27 c73d dbc5 2b3d 0ffc 34be a3ae cc3b
00000040: f628 0a3e 5969 10bd 7774 cdbc b140 8f3b
00000050: 53a0 c43d d520 d5bd ac58 a4bd a7c1 27be
00000060: ab74 503d 92e9 253d cfcf 313d fe36 babc
00000070: a87b b3bd d7e3 b1bd ca10 2e3e 7445 a53d
00000080: 14e1 8f3d c823 b13d 09aa d43d e19d cc3d
00000090: c6fd 623c b5b9 c9bd 56d2 2cbe 399b 153e
000000a0: 687e 053e d9b0 cbbc 506f a13d 38b1 883c
000000b0: f49e 2fbd ea26 c4bc f4d1 e03b 41db 6fbc
000000c0: 66ba 863b 043c 8dbc 1ce9 eebb 98c3 303d
000000d0: d2a6 a5bb 9dc4 7f3d 4e66 4abe 6382 30be
000000e0: 15a1 9fbe 3d0c acbd 56b6 2abe eec8 4fbe
000000f0: b775 2f3e d2f4 4b3e 37ca 363e f07f 813d
00000100: 7e93 b1bd 7995 c2bd 07b5 283c c00b b33d
00000110: 6739 0d3d 6aaf 86bb 4aa1 0bbd a9b2 93bd
00000120: 02cd 14bd 3b8e cfbd bbb1 843d 12f5 cdbd
00000130: 07b7 cc3d c52f f43d e56b a5bd 7d5f 09be
00000140: 32f3 37bb d2d4 75bd 0ca0 efbd 773b 8ebd
00000150: cade 203e 39b7 113e fc0c 013d fab9 ecbd
00000160: fdf8 48be 155b f6bd b974 b53b f083 033e
00000170: 01d3 c63d af15 f23c 48cb 40bd df2b 38be
00000180: 4816 ccbd 08c2 e13c 8f9f 103d bb37 85bd
00000190: 1df8 0d3d 96c2 4e3d 38a0 4d3e 8bf5 a13e
000001a0: 404d 9e3e 2a27 703e 4a5e b93e 0217 223e
000001b0: 802f 02bd ee07 bb3b 74c9 47bd 719f 5b3d
000001c0: 0007 533e 054a 773e d407 393c 48ac 0b3d
000001d0: ec77 8e3c c4c3 013d c73e 05bd ac69 89bd
000001e0: ccf8 2abe cb53 64be 52d3 c2bd 9d88 203e
000001f0: d7bb f53d 7431 9e3d 9dc2 2bbd c39b 0e3d
00000200: 5a87 983c 61ad 8d3d fc3e 5e3e 5164 8f3e
00000210: 65bf fe3d 6bb7 8cbc c224 3ebd cbb8 203e
00000220: 7a34 673d 07b7 7b3d 354e a43e 94b5 a43e
00000230: 82b6 323e 2741 233e 309d 783e 963b 313e
00000240: bd11 b4bd 0cc8 0c3e ebb7 803d 6f15 763d
00000250: ab04 81bb aac3 89be b242 47bd 6dd2 57be
00000260: be2f a2be 6eec 093e 5ee8 5e3d 5cea c6bc
00000270: 3839 f33d ea3c 373d 23b7 8bbe aa34 86be
00000280: c5fe 1fbf bd17 60bf 7b64 a83c 757c 9bbd
00000290: 8798 e9bb 5165 abbd 301c b5bd 0963 263d
000002a0: 4b79 2ebd 1736 9fbd 5618 babd 5dd2 d0bd
000002b0: 78b1 58bd d6b7 17be b9f3 41be 00d0 37be
000002c0: 2d09 9cbe 9f30 95bd f4dc 6cbe 24c8 d6be
000002d0: e228 fb3d 589f 883c f9f0 813d 44ea bfbc
000002e0: ca1c 8bbd 191f 08be b2fe ffbd fd23 b9be
000002f0: 55e4 10bf 13fd b3bd 3644 503d 76c9 6fbb
00000300: 2771 f13c 2411 9dbc 6a5d 0e3e ddf8 a5bb
00000310: e97a bfbd feb1 223e 9984 bfbd bf17 2bbb
00000320: 0827 3c3d 9e43 febc 9d32 a03d aeb3 4dbd
00000330: a87f 1b3d 2857 8e3d 6214 bf3c 7699 16bd
00000340: 4efa 6dbc e18f 4ebd bf8f 00be f7cf 9cbe
00000350: 77b2 f2be 9f70 99bd de59 51be b511 9cbe
00000360: 80fc bf3b 4aca a63d 921d 113d 85c7 e2bc
00000370: 377f 5cbe ace3 75be c86a da3d b2cc 44bc
00000380: bbaa 5fbc 2cb6 693e ed97 203e ea7d af3d
00000390: 71c9 0bbe 962d 43be fc7a b5bd 8892 0e3d
000003a0: 31dd 0d3d 5ae5 a73d 3fde c93d f140 0fbd
000003b0: 1952 b4bd f38b 243e c435 ac3d 5406 3f3e
000003c0: 4dcd 0bbd 1282 4e3c a173 203d c210 993b
000003d0: 5bef 463d a97e bd3d d9b6 7fbd b4f0 44be
000003e0: a8bd 08be b7b9 793d 66bb 4e3d 7585 e93d
000003f0: f74e 103e 0c2a 333e d335 363e 55fb ac3c
-0.07841649 -0.16302636 -0.16870902 0.045327287 0.05243561 -0.122601874 0.058440436 -0.063707635
-0.10697333 -0.11001417 -0.1445199 -0.14581637 0.097244106 0.041936737 -0.17674278 0.0062464043
0.13492188 -0.035256717 -0.025079949 0.0043717255 0.09600892 -0.10406653 -0.08024725 -0.16382466
0.050892513 0.040505953 0.043411072 -0.0227313 -0.0876382 -0.08686035 0.16998592 0.08069888
0.07025352 0.08649403 0.10383994 0.099910505 0.01385445 -0.09849874 -0.16877112 0.14609994
0.13036501 -0.024864601 0.07882559 0.016686067 -0.0428762 -0.023944337 0.006860966 -0.014639677
0.004111576 -0.017240532 -0.0072909724 0.043155283 -0.005055287 0.062443364 -0.19765589 -0.17237239
-0.31177583 -0.08400772 -0.16671118 -0.20291492 0.17134748 0.1991761 0.17850576 0.0632323
-0.0867071 -0.09501166 0.0102970665 0.087424755 0.03447857 -0.0041102665 -0.034089364 -0.07211811
-0.036328323 -0.1013455 0.06479212 -0.10056509 0.09995847 0.11923174 -0.0807722 -0.13415332
-0.002806854 -0.060017414 -0.117004484 -0.06944936 0.15709987 0.1423005 0.031506523 -0.1155891
-0.19626231 -0.12029091 0.005537596 0.12843299 0.097082146 0.029551355 -0.047068864 -0.17985485
-0.09965187 0.027558342 0.035308417 -0.0650477 0.034660447 0.05047854 0.2008065 0.31632647
0.30918312 0.2345244 0.3620475 0.1582909 -0.03178358 0.0057077324 -0.048776105 0.053618852
0.20608139 0.2414933 0.01129337 0.034099847 0.017391168 0.031680837 -0.032530572 -0.067096084
-0.16696471 -0.2229759 -0.095129624 0.15677114 0.11998718 0.07724276 -0.041933645 0.034816515
0.018619228 0.06917835 0.21703714 0.28006223 0.12438849 -0.017177304 -0.046421774 0.15695493
0.05644653 0.061453845 0.32090917 0.32169783 0.17452434 0.15942822 0.24278712 0.17307886
-0.08792446 0.13748187 0.062850796 0.060079034 -0.003937324 -0.26907092 -0.04864759 -0.21076365
-0.3167705 0.13469097 0.05442082 -0.024281673 0.11876148 0.044735827 -0.2728816 -0.26212054
-0.6249812 -0.8753622 0.020555725 -0.07592098 -0.0071287784 -0.08368934 -0.08843267 0.04062179
-0.042596143 -0.07773989 -0.09086673 -0.101963736 -0.052903622 -0.14816222 -0.18940629 -0.1795044
-0.3047575 -0.07284664 -0.23131162 -0.4194957 0.12263657 0.016677544 0.0634479 -0.023427136
-0.067926005 -0.13293113 -0.12499751 -0.3616027 -0.5659841 -0.087885045 0.0508463 -0.0036588586
0.0294729 -0.019173212 0.13902822 -0.005065067 -0.09349615 0.15888211 -0.09351463 -0.0026106683
0.04593566 -0.031038102 0.07822154 -0.050220184 0.03796354 0.069502175 0.023325149 -0.036767446
-0.014525009 -0.050430182 -0.12554835 -0.30627415 -0.47401783 -0.07492184 -0.20444438 -0.3048226
0.005858958 0.08144052 0.03542859 -0.027683029 -0.21532904 -0.24012631 0.10664898 -0.012011694
-0.013651545 0.228234 0.15682955 0.08568938 -0.13651063 -0.19060358 -0.08861348 0.03480771
0.034634773 0.08198042 0.09856843 -0.034974042 -0.088047214 0.16069011 0.084086925 0.18654758
-0.034131337 0.012604253 0.039172772 0.004671187 0.04856811 0.09252674 -0.062430236 -0.19232446
-0.13353598 0.060968127 0.050471686 0.11402408 0.14092623 0.17496508 0.1779397 0.021115938

onnx::Conv_44 f4 [16]
00000000: 555d 553f 511f 30bf a310 bc3f c803 e6be
00000010: ecf7 cabc d21e dabe 71f4 c33f 51fe ec3e
00000020: 0e4c 1a3f 5007 ae3f 9748 e9be 96f3 4bbf
00000030: 4059 f43f bd40 8cbf ce31 5f3f 00e0 b93c
0.8334554 -0.68797785 1.4692577 -0.4492476 -0.024776421 -0.4260164 1.5308973 0.46287778
0.602723 1.3595982 -0.45563194 -0.7966856 1.9089737 -1.0957257 0.8718537 0.02268982

onnx::Conv_46 f4 [32, 16, 3, 3]
00000000: 6046 eabc eba8 c5bd 6738 a4bd e49c afbd
00000010: 8aa4 453b 14a7 fdbc 8551 7abd e6df 5a3d
00000020: aafa 313d 57b0 7abd 224e 39be 15ee 95bc
00000030: e22e 3dbe 1e62 1dbd 8601 aebd 21c3 05be
00000040: 03f4 aa3c 0efa 80bd abe0 f53c 797b b23d
00000050: 8b95 913d c83b e0bd c823 223e c14f b63c
00000060: 8a0a 57bd c588 163e 8617 c7bd 2ebf 153d
00000070: 9f53 ed3d 49d1 8b3d 7bc1 30be 9ccf ac3d
00000080: 4613 a8bd 7250 833d 1e87 4fbe f9be d0bb
00000090: 0cc3 b1bd 9f7a 40be be19 33bd 7ca9 923d
000000a0: 5091 1f3e a9ea 0a3e 1fa8 a9ba 36fd 38bd
000000b0: b519 053d fffe bc3c 3fa6 99bd 4de6 463d
000000c0: edfa 91bd e9a8 4bbe 245c 02bd 188d 983a
000000d0: fa1b db38 f134 793d 34b2 a0bc 5f04 c33d
000000e0: 4807 5f3d 79c1 e8bd a174 25be 3e91 f9bd
000000f0: 4849 ad3d ba70 0bbd c36c 93bc 018b dabd
00000100: bb94 11bd 796e 3c3d 2976 353d 539b dfbd
00000110: 66ea 093c dec0 51bd c0da 81be 59e0 a2bd
00000120: 48bf cdbd 4269 d1bd 54ad 64bd feb9 973c
00000130: b4a1 7abb a70b adbd 080c 8abc 5832 8a3d
00000140: 713a a7bd 0f96 753d 1ccf 723d 5676 d53b
00000150: 072d da3c 0ef1 87bd 0b58 5dbc 763a b23d
00000160: f5ca 213e bf5c 3e3d 948b c43c b81e 8ebd
00000170: 8225 343d d1e2 833c 8ab5 ac3d a267 c03d
00000180: 85bd efbd 732b 94be d383 14be 1ce4 4e3d
00000190: 5fe4 2c3c dddf b43d ba03 26bd 0c00 26be
000001a0: 0d42 fabd 1617 063e fcfc 043e 00ae 023d
000001b0: 1db0 e63c a855 893d 2ea1 bc3d df41 dcbc
000001c0: 77d6 f2bd 6835 2a3d 2929 00be f4bd 80bd
000001d0: a3ed e5bc 4ac0 34bd ccba b13c 9218 0dbd
000001e0: 1848 4e3d 4a26 a33e 56d2 053e 8508 e6bd
000001f0: 2002 7dbe 3d0c 82be f8ec 76bc 2bae aabd
00000200: 25d5 ec3c 12fa a5bc 8356 f73d 5a78 0b3d
00000210: eb63 18bb d3d8 40bd 923f 93bd b2ae d5bd
00000220: d764 b9bd 613e 113d 39f7 f9bd ee9a d03b
00000230: b936 813d 43df 04be d5ce 11bd 8e29 813c
00000240: 5e64 453b 790a 083e a18c b63d aa1c 6f3b
00000250: 8b9a 4ebc 79c3 e8bc b327 49bd 3888 57be
00000260: 26d9 58be 41b6 073d 4a56 7e3e 0d64 b53d
00000270: 7614 2d3e 858e fabd ab06 02bb 2d86 2b3e
00000280: 6251 81be 79e7 21be 11e1 8ebc 48a8 5fbd
00000290: df06 68bd 5e62 8fbd 4b6a aabd 9b65 bfbd
000002a0: c90e 843c d7dc 973d 9aeb 5c3d 5de3 663d
000002b0: 4bc8 a83e f61a 663e febe b5bd 81a4 16be
000002c0: cdf8 15be 0757 d7bc 49b1 a0bd e605 0bbe
000002d0: 02a8 15bd 58f9 b9bd ce21 f1bd c82a 033e
000002e0: e616 57bd f0ac 413c cabd afbd 9e17 e33e
000002f0: b0db 183e 1b98 06be 3b31 a8bc d8b9 91bd
00000300: 96b8 6bbd 5b86 c9bc 2187 ebbc cff2 a3bd
00000310: 11da 8ebd 7ef7 22bd 4d26 493d ebfb af3d
00000320: 55fa 563d 1cc1 19be 31e4 febc 1c07 92bd
00000330: d4fd 8d3d 7d72 853e 050e 573e 726d 803c
00000340: ebbb c73d 5342 5dbd 3cad c4bc e2fa 1ebe
00000350: 1a67 773d a889 693e da00 953d cdf3 023e
00000360: 168b 3abe f8c6 f13c 63de d9bd 2b49 7dbc
00000370: 11d7 253e 1c77 c63d ebbc 08bd 595b 323e
00000380: 6eb4 643d bd84 5a3c 515f f7bc b73b a6bd
00000390: 361d 2d3e d15c bdbd a311 56bd 71f6 17bb
000003a0: 0eff 75bd 3e0f 7fbe c3a2 9cbb 00c6 41bd
000003b0: c58e 07bc 04c7 02bd 46ec 08be 9044 b13d
000003c0: de26 413e 3400 8e3e 49ad ef3d 1dd9 5ebe
000003d0: cd16 eabd 31f3 67bd 8145 48be f0aa 9a3e
000003e0: cf25 18be bf99 243c d3b9 f53c 5846 1b3e
000003f0: 1ea9 e43c f74a b0bd cc66 753d 7103 08be
-0.02859801 -0.09651359 -0.080185704 -0.085748464 0.0030157887 -0.030963458 -0.0611129 0.053436182
0.043451943 -0.061203327 -0.18096212 -0.018302003 -0.18474916 -0.03842365 -0.08496384 -0.13062717
0.020868307 -0.06297694 0.030014357 0.08714957 0.07108601 -0.10948902 0.15833962 0.022254827
-0.052500285 0.14700611 -0.097212836 0.036559276 0.11588215 0.06827027 -0.17261307 0.08438036
-0.08206801 0.06411828 -0.20266387 -0.006370422 -0.0867978 -0.18796776 -0.04372572 0.07161233
0.15582776 0.13566078 -0.0012943781 -0.045163356 0.03249522 0.02307081 -0.07502412 0.048559476
-0.071279384 -0.19888653 -0.031826153 0.0011638729 0.00010447945 0.060841504 -0.019616224 0.09522318
0.054450303 -0.11365027 -0.16157772 -0.12185906 0.08461243 -0.03404305 -0.017996198 -0.10671044
-0.03554223 0.046003792 0.04430214 -0.109182976 0.008417701 -0.051209323 -0.25362206 -0.07952947
-0.1004625 -0.102251545 -0.05582936 0.018521305 -0.0038243355 -0.08449488 -0.01685144 0.067478836
-0.08165444 0.05995756 0.059279546 0.006514351 0.026632799 -0.066377744 -0.013509761 0.08702557
0.15800078 0.04647517 0.023992337 -0.06939453 0.043981083 0.016099365 0.08433063 0.093947664
-0.1170607 -0.289394 -0.14503412 0.05051051 0.010552495 0.08831761 -0.040530898 -0.16210955
-0.122196294 0.13094744 0.12987131 0.03190422 0.02816015 0.06705791 0.0921043 -0.026886879
-0.11857312 0.04155484 -0.12515701 -0.06286231 -0.028067416 -0.044128694 0.021695517 -0.03444726
0.050361723 0.3186515 0.13068518 -0.11232094 -0.24707842 -0.25399962 -0.015071146 -0.08334001
0.028910229 -0.020260844 0.12077048 0.034050323 -0.0023252915 -0.04708178 -0.071898594 -0.10433711
-0.09052437 0.03545988 -0.12205357 0.0063661253 0.06309266 -0.12975793 -0.03559764 0.015766885
0.0030119638 0.13285245 0.089135416 0.003648559 -0.012610088 -0.028413521 -0.049110126 -0.21048057
-0.21176586 0.033132795 0.24837604 0.08856974 0.16902336 -0.12234215 -0.00198404 0.16750403
-0.25257403 -0.15810956 -0.017441304 -0.054603845 -0.056647178 -0.07001184 -0.08321055 -0.093455516
0.016120331 0.07415169 0.053935625 0.056369174 0.3296531 0.22471222 -0.088743195 -0.14711191
-0.14645691 -0.026286615 -0.078463145 -0.13576469 -0.036537178 -0.09080762 -0.11774026 0.12809289
-0.052512072 0.011821017 -0.08581121 0.44353956 0.14927554 -0.13143961 -0.020531287 -0.07115525
-0.05754908 -0.024600198 -0.028750958 -0.080052964 -0.069751866 -0.03978681 0.049108792 0.085929714
0.05248483 -0.15015072 -0.03111467 -0.07130262 0.069331795 0.2606391 0.21001442 0.015677188
0.097526394 -0.05401833 -0.024008386 -0.15525392 0.06040106 0.22806418 0.07275553 0.12788315
-0.1821712 0.029513821 -0.1063812 -0.015459339 0.16195323 0.09690687 -0.03338329 0.17417659
0.055836134 0.013337311 -0.030196818 -0.081168585 0.16905674 -0.09246219 -0.052262913 -0.0023187662
-0.060057692 -0.24908158 -0.004780145 -0.04730797 -0.008273785 -0.031928077 -0.13371381 0.086556554
0.18862483 0.2773453 0.117029734 -0.2176251 -0.1143013 -0.05662841 -0.19557764 0.3020854
-0.14858173 0.010046422 0.029995834 0.15163553 0.027912673 -0.086080484 0.059912488 -0.13282563

onnx::Conv_47 f4 [32]
00000000: d2a6 ed3f 206b de3e c791 7a3f 2b70 b03f
00000010: 7ea4 58bf bafe f33f 4afa 8d3f f7ba 133f
00000020: 20a5 5fbf fcef 253f d3b7 2bc0 4026 a2be
00000030: e04a 8f3f 3ab9 eebf 016b d2bd 1eab a13e
00000040: 4631 d43f 18c3 413f e017 a33e fcf2 1cbd
00000050: 1274 ccbf 44a7 e83f 6de6 dcbe 2085 cf3c
00000060: cd70 d03f 5e4e 0f3f 1e18 8bbf cb5c b4be
00000070: c7de 8bbe ff0a af3f 83fe 1cbe fd75 ba3f
1.8566535 0.43441105 0.9787869 1.3784231 -0.84625995 1.9062111 1.1092007 0.5770716
-0.87361336 0.6481931 -2.6830947 -0.31669807 1.1194725 -1.8650277 -0.102743156 0.31575865
1.6577537 0.75688314 0.31854153 -0.038317665 -1.5972922 1.8176045 -0.4314455 0.025332034
1.6284424 0.55978954 -1.0866735 -0.35227045 -0.27318403 1.3675231 -0.15331464 1.4567257
