etc/models/whistledetection.onnx (onnx, 22129 bytes, 3 tensors)

layer1.bias f4 [128]
000000 c4 2f 09 3d 44 b3 e2 3d 53 f3 b4 3d 5b 91 ae 3d
       0.03349282 0.110693485 0.08835473 0.08523818
000010 31 b5 f2 bd c7 66 34 be ab 45 c2 3c 28 7b e0 bd
       -0.11850966 -0.17617331 0.02371486 -0.1096099
000020 b7 e7 b7 3c 17 ed fa 3d e3 3b 10 b9 54 ba 89 3d
       0.022449357 0.122522525 -0.0001375522 0.067249924
000030 56 15 0f be f2 66 06 bc fe 4c 07 be 3c 7b b3 bd
       -0.13972983 -0.008203255 -0.13212964 -0.087637395
000040 3c 83 ca 3d 48 08 1f bd 1c 40 88 3d ca 62 02 3d
       0.09888312 -0.038826257 0.06652853 0.031832494
000050 d1 d3 83 3d 94 de 4f 3d 8d 27 19 be 90 30 48 bc
       0.06436885 0.050749376 -0.14956494 -0.012218609
000060 62 82 dd bb 1e b6 e7 bd 21 74 0b be e0 1f fe bd
       -0.0067599276 -0.11314033 -0.13618518 -0.124084234
000070 6f 37 95 3d 05 8d 28 bd c2 a8 a7 bc f5 24 f3 bc
       0.07285964 -0.04115011 -0.020466212 -0.029680708
000080 91 9e a9 3d d2 71 7a 3d 31 0a d3 3d 27 94 03 3e
       0.08282197 0.061143704 0.10304678 0.12849484
000090 80 0b ee 3c a3 54 37 bd de 80 23 3e e9 0b af bc
       0.029058218 -0.04475845 0.15967128 -0.021367984
0000a0 58 79 d5 3d be 69 fa bd 97 71 3c be 3d d8 b6 3d
       0.10423535 -0.122272 -0.18402706 0.08927963
0000b0 70 83 1d be e1 3a 94 3d c7 a0 eb bd 34 33 6d 3d
       -0.1538217 0.07237793 -0.11505275 0.05791016
0000c0 8c 2d 95 3d 2b 85 1f 3d d2 e1 10 be ee 5a bb 3d
       0.07284078 0.03894536 -0.14148644 0.09148203
0000d0 2e 72 0c bd 15 3a 24 bd 7a 8a 19 be b1 08 e9 bd
       -0.034288578 -0.040094454 -0.14994231 -0.11378611
0000e0 20 2e 80 bd 55 bd d3 3d 08 23 da bd 1b be 31 be
       -0.06258798 0.103388466 -0.10651213 -0.17357676
0000f0 e0 2d 16 be 5c 15 22 3b 8d 5f 10 be 72 6b 02 be
       -0.14665937 0.002473197 -0.1409895 -0.127363
000100 87 89 d8 bc d9 d0 fe bd 66 df 11 3d 81 ae 9e bc
       -0.026432766 -0.12442178 0.03561344 -0.01937032
000110 2e 71 e5 3d 5a 34 0e bd ed 97 26 be 8d 13 bd bd
       0.11203228 -0.034717895 -0.16268893 -0.09232245
000120 0d 0c 98 bc aa 1c 8f bd 42 b5 15 3e 91 24 30 be
       -0.018560434 -0.06987889 0.14619926 -0.17201449
000130 78 83 3d be e6 0f 73 3d fc f0 76 bd 5a 7b 98 3d
       -0.18507183 0.059341334 -0.060288414 0.074454024
000140 3c cd 61 ba c8 f9 4c 3d be 86 af 3d ec a3 18 bd
       -0.0008613651 0.050042897 0.08570622 -0.037265703
000150 f0 c0 eb bd 5d d3 71 bd f1 48 48 3c 5c 01 c1 bd
       -0.11511409 -0.059039462 0.012224422 -0.094240874
000160 a4 4f ec 3d 7d c5 4f 3d 66 15 b8 bd a3 85 3c 3e
       0.11538628 0.05072545 -0.089884564 0.18410353
000170 80 f7 30 3d a6 4e 72 3d 31 4c a7 3d 2c 89 c5 3c
       0.043204784 0.059157036 0.08168829 0.02411326
000180 7f d0 df bc 42 cc f3 3d 9b f9 bd 3c 96 c1 b0 3d
       -0.027321098 0.119041935 0.02319031 0.086306736
000190 c6 42 6a 3d 2a f6 cc bd f1 0f de bd af b0 ba 3d
       0.057192586 -0.100078896 -0.10842884 0.09115731
0001a0 24 ae 40 bd 40 e6 c0 bd 61 49 9f bd a9 40 00 be
       -0.047041073 -0.09418917 -0.07777668 -0.12524666
0001b0 40 6c 7b 3d e3 18 88 3d b7 52 f7 bd e9 03 27 be
       0.061382532 0.06645372 -0.120763235 -0.16310085
0001c0 4c 8e 34 3c 9d c1 14 3d 66 1a e4 3d a5 f5 17 bc
       0.011020254 0.036317457 0.111378476 -0.009274875
0001d0 ba 70 2d bd c0 6b a8 3d 2a 93 b2 3d 81 b0 8b 3d
       -0.042343833 0.08223677 0.087194756 0.06820775
0001e0 d7 35 c0 3d d1 a8 1d be 32 4d 95 3d 53 9c a7 3d
       0.09385269 -0.1539643 0.072901145 0.08184113
0001f0 b3 b7 ad 3d 3b 70 ab bd e4 db 61 3d f8 85 1b be
       0.084823035 -0.08371016 0.055141345 -0.15187824

onnx::MatMul_13 f4 [40, 128]
000000 7e 91 d6 3d 97 d6 dc 3d 58 6e 12 3e 90 1c 36 bd
       0.10476969 0.10783117 0.14299905 -0.044460833
000010 f6 da 24 3d 6f 90 d2 bd a7 e7 7f 3d 76 67 a2 bd
       0.04024788 -0.10281455 0.06247678 -0.0792989
000020 f3 c8 10 3e b7 86 1b 3d f8 1e 0e be d1 7f 1a 3e
       0.14139156 0.03797027 -0.13879001 0.1508782
000030 92 b7 12 3d fd 38 07 3e 80 d6 f8 3c 36 d0 d3 bd
       0.035819598 0.13205333 0.03037572 -0.103424475
000040 bd e4 28 3e 16 f0 01 bd 70 50 6e 3d 5a 41 47 3d
       0.16493507 -0.031723104 0.05818218 0.04864631
000050 4c b2 d7 bd 28 3a 15 3d fe 7c 0e bd b6 4e d2 3d
       -0.10532054 0.036432415 -0.03478717 0.10268919
000060 b2 07 e7 bd cf 8a 8d bd f5 be b3 bd 1d d1 c0 bd
       -0.11280765 -0.06911241 -0.087766565 -0.09414885
000070 c4 a6 53 bd 4a f5 03 3e 2d e6 05 3e 04 f9 5e bd
       -0.051672712 0.12886539 0.13076086 -0.0544367
000080 b0 30 eb bd af 46 7c bc 5e 41 96 3d 9e 93 a3 bd
       -0.11483896 -0.015397712 0.073366866 -0.0798714
000090 00 86 35 ba 18 f9 d2 bc 90 a5 21 3d 20 15 4a 3d
       -0.00069245696 -0.025753543 0.039464533 0.049336553
0000a0 c7 99 77 bd e0 95 08 bc 05 61 25 bd 91 5b 17 be
       -0.060449388 -0.008336514 -0.04037573 -0.14781024
0000b0 1e 54 9b bd 7a 6b e4 bd 0e f0 08 bc 31 02 92 bd
       -0.075844035 -0.11153312 -0.008358015 -0.07129324
0000c0 ce 07 0b 3d 7b 66 7b 3c fd f7 b6 bd 6d 5d bf 3d
       0.03394299 0.0153442575 -0.08934019 0.093439914
0000d0 24 ce 2f 3d fa 99 a0 3c 51 34 e5 bd b4 4f 0f 3e
       0.0429212 0.019604672 -0.11191619 0.13995248
0000e0 8b 48 06 3e 2d 7e aa bd ad 07 a7 3d 24 2d 2b 3e
       0.1311361 -0.08324847 0.08155761 0.16716439
0000f0 cb ff bc 3c a3 de 6a bd 10 4a a9 3c 22 55 30 3e
       0.02307119 -0.05734123 0.020665199 0.17219976
000100 a1 12 4d bc e7 57 1e 3d cc b9 07 3e 80 57 ca bd
       -0.0125166485 0.03865805 0.1325447 -0.098799706
000110 b5 2c 47 3b 2c 6a 95 3c df 86 d9 bc 6e ab fe 3d
       0.0030391638 0.018239103 -0.02655357 0.12435041
000120 63 78 a4 3c 38 15 c5 3d bb 3a e5 3b 7f 82 35 3d
       0.020076936 0.09623188 0.0069955266 0.044313904
000130 88 52 7a bd 47 20 1c be 27 58 72 bd 0b 47 16 be
       -0.061113864 -0.15246688 -0.0591661 -0.14675538
000140 80 1d ec bd c7 71 c4 3d 0f 1b fc 3d 33 79 66 bd
       -0.11529064 0.09592014 0.123098485 -0.05626793
000150 88 ce b2 3c c4 da 18 3d 3b 22 fb bc a2 25 16 be
       0.021826997 0.037318006 -0.03065597 -0.14662793
000160 1c 3f f1 bd 0f ad cd bc b8 0c 9a 3d 15 9a a7 3a
       -0.11779615 -0.025106935 0.07521957 0.0012787009
000170 e8 d8 03 3e 53 56 b0 3d bc 63 1f 3e 91 4c 62 bd
       0.12875712 0.08610215 0.1556539 -0.0552488
000180 1a f9 b0 bd 88 a3 a6 3d 98 ce 1e bc 94 9c d8 bd
       -0.08641262 0.0813666 -0.0096928105 -0.1057674
000190 58 b4 a6 3c 79 a0 dc 3d 71 49 a0 bd 2c 60 70 bc
       0.020349666 0.10772795 -0.07826508 -0.014671367
0001a0 3a db 93 bd 1b 23 ec bd 0e 40 20 3e b6 fc f8 3d
       -0.072195485 -0.11530133 0.15649435 0.12157576
0001b0 6a c9 f4 bd c1 04 63 bd 9f d0 98 bd 37 b4 b2 3d
       -0.11952479 -0.055424456 -0.07461666 0.087257795
0001c0 a0 f4 97 bc 81 7f 23 3d c6 24 c3 3d cf 54 8c bd
       -0.018549263 0.03991652 0.09528498 -0.068521135
0001d0 bb b8 61 bc ad ae 60 bc f7 1e 03 3e 95 d9 38 bc
       -0.013776953 -0.013713521 0.12804781 -0.011282344
0001e0 8b c1 ce bd 60 95 97 3d a2 27 2c 3e a1 54 96 3d
       -0.10095509 0.07401538 0.16811994 0.073403604
0001f0 dc 84 eb bd 0b 43 fe bd 47 52 64 3d c1 9f f6 bd
       -0.1149995 -0.12415131 0.05574253 -0.120421894
000200 00 4f 20 ba 13 53 58 be 86 e1 03 be 18 a2 e9 bc
       -0.00061152875 -0.2112544 -0.12878999 -0.028519675
000210 13 94 9c bd 1a cd 3b bd 7a bd 24 be 3d 74 b6 bd
       -0.076454304 -0.045849897 -0.16087905 -0.089088894
000220 41 0e 52 3e 99 56 d1 3d 40 42 78 3d 61 77 91 3d
       0.2051325 0.10221595 0.060610056 0.07102848
000230 39 3c dd 3d b1 d0 97 3e ce b2 04 3e 09 5c 80 3e
       0.10802502 0.29651406 0.12958834 0.25070217
000240 c2 78 e7 bd bf 29 b5 3d 6a 76 94 3d 48 6c e1 3d
       -0.113023296 0.08845853 0.07249148 0.11006981
000250 10 0e fe 3d d2 d3 a7 3d 92 64 88 bd fe a0 ce 3d
       0.12405026 0.081946984 -0.06659807 0.100893006
000260 04 61 96 bc 2c 47 28 3e e7 8a 02 be e0 df d4 bd
       -0.018356808 0.164334 -0.127483 -0.10394263
000270 b6 3b 40 bd ef af a9 bd 1b 74 e8 3d d4 76 e8 3d
       -0.046931945 -0.0828551 0.1135027 0.1135079
000280 0f 37 67 3c 83 41 41 bc 40 4d 20 3e b3 56 9c 38
       0.014112248 -0.011795404 0.15654469 7.454809e-05
000290 af b1 12 3e c1 cf 41 3c 8d bc 99 bd 30 21 3a bc
       0.14325593 0.011829318 -0.07506666 -0.011360452
0002a0 dd 49 ab 3d e2 65 f4 3d 49 58 06 3e d5 26 2c 3e
       0.08363698 0.11933495 0.13119616 0.16811688
0002b0 8f d7 04 3e 15 e6 17 bd 3f 60 49 3d a2 b2 f8 3d
       0.12972854 -0.037084658 0.049164053 0.121434465
0002c0 13 06 7d 3d b5 53 b2 bd 1d e1 99 bc fd ad 53 3e
       0.06177337 -0.08707372 -0.0187841 0.2067184
0002d0 8d 09 04 be 46 7a e5 3b 91 fb 1b 3e 26 2d fe bd
       -0.12894268 0.0070031015 0.15232684 -0.12410955
0002e0 0d ee 6c 3c cc 69 38 bd 39 6c 02 be db 97 fc 3c
       0.014461053 -0.04502277 -0.12736596 0.03083413
0002f0 97 14 ea 3b f6 3c ae 3d 4c 4b 39 3d 8c ab e8 3e
       0.007143568 0.08507721 0.045237824 0.4544338
000300 7b 93 8d bd 72 68 a4 3d 09 48 27 be 61 1b 9b be
       -0.06912895 0.08027734 -0.16336073 -0.30294326
000310 47 9b 80 bd ce ef 42 3e 36 ae c1 bd c8 71 95 bc
       -0.06279617 0.1903679 -0.09457056 -0.018242732
000320 04 1b 81 bc a0 2d 09 be 56 5f c5 bd 36 93 bd bd
       -0.015759952 -0.13396311 -0.096373245 -0.09256594
000330 eb dd a0 3d d0 f2 75 3d ef c5 82 3c f2 89 41 be
       0.078548275 0.060046017 0.015963523 -0.18900278
000340 dc d8 ea 3b 5d f2 e0 3d 97 34 a2 3c 8d e0 9d bd
       0.007166965 0.10983727 0.019800467 -0.07708845
000350 dd 66 c1 bc 91 54 95 3e 9e 7e a0 bd fe d2 e2 bc
       -0.02360862 0.29166082 -0.0783665 -0.0276885
000360 86 76 12 be 37 df 57 bd e8 ef 4c 3e df 36 42 3d
       -0.14303026 -0.05270311 0.20013392 0.04741561
000370 a6 c2 9c bd 8e a2 19 3e 21 df dd bd 56 01 89 3e
       -0.07654314 0.15003416 -0.10833574 0.26758832
000380 53 69 9f 3d a2 f0 f4 3d 47 10 17 be d6 fd b1 3d
       0.07783761 0.119599596 -0.14752303 0.086909935
000390 ef 68 4d bc f2 9d 11 be 7c b9 61 bd e6 32 0a be
       -0.012537225 -0.14220408 -0.055108532 -0.13495979
0003a0 e5 98 7b bc 86 01 81 bd 04 20 1b 3d 09 9a 1e 3e
       -0.015356277 -0.06299119 0.03787233 0.15488447
0003b0 bb fc 91 bd 51 00 04 bd 8e 6a 9a bd 23 a6 68 bd
       -0.07128283 -0.032226864 -0.07539855 -0.056799065
0003c0 8c cb e6 bd e9 17 a8 bc 44 26 83 3d 52 22 a8 3c
       -0.11269292 -0.020519214 0.06403783 0.020524178
0003d0 b3 6d 22 3d 8a 5f 15 bd 2b 03 78 bd 96 10 e7 3b
       0.0396554 -0.036468066 -0.060549896 0.0070515377
0003e0 2c d5 99 bd c8 ae ff bd c2 4a 04 be 1d 35 de bc
       -0.075113624 -0.12484509 -0.12919143 -0.027124936
0003f0 71 31 17 3e c1 e5 15 3e 34 ff 64 3c 26 74 3b bc
       0.14764954 0.14638425 0.013976861 -0.011441266

onnx::MatMul_14 f4 [128, 1]
000000 8d 00 91 3d 56 70 1f 3f 0c 36 96 3e 4f a7 f4 3a
       0.07080183 0.62280786 0.2933811 0.0018665585
000010 33 80 c2 bc 9a 0f cc b9 70 f6 8c 3d e3 31 f8 bb
       -0.02374277 -0.00038921536 0.06882942 -0.0075743063
000020 f5 00 06 3f 96 a7 92 bc d0 f6 0d bd b4 dd 33 3f
       0.5234521 -0.017902177 -0.034659207 0.7026017
000030 29 33 86 bd 1e c7 bc 3e bb eb 7c bd d6 82 2d be
       -0.06552727 0.36870664 -0.061748248 -0.16944441
000040 32 c1 b0 bc 52 68 e0 3c ff b5 a8 3d 89 21 0e bd
       -0.021576498 0.027393494 0.08237838 -0.03469995
000050 51 c0 b0 bb 28 f2 6a bc 73 48 5b bd a8 a1 a0 bd
       -0.0053940197 -0.014339961 -0.05353589 -0.078433335
000060 cb 29 06 bd 91 26 87 bc ee c7 16 3d 95 63 ee ba
       -0.0327547 -0.016497882 0.03681176 -0.0018187637
000070 f0 fa 98 3d f6 9e 07 bf c4 6a 28 bd 0e 87 1a 3b
       0.074697375 -0.5297693 -0.041117445 0.0023579034
000080 e0 ba 1e bd 4a 54 1f 3d 81 d7 ae 3e 38 d7 8f bd
       -0.038752437 0.038898744 0.3414879 -0.070234716
000090 31 11 b1 bd 89 0a 0b 3e 97 50 20 3f 81 dc 3f 3b
       -0.08645857 0.13578238 0.6262297 0.0029275718
0000a0 db 3e 8d ba 42 69 69 3d 49 24 a6 bb 7b d6 83 bd
       -0.0010776179 0.056985147 -0.0050702435 -0.06437393
0000b0 ab 50 1e 3f 61 a6 c6 bd d1 28 90 bc b4 b8 9c be
       0.6184184 -0.09699703 -0.017597588 -0.30609667
0000c0 02 3c 1f 39 b9 9e bf 3c a3 27 47 bb bd 06 b5 3e
       0.00015185776 0.023391115 -0.0030388616 0.35356703
0000d0 d3 af b3 3c 00 d9 28 3d b6 95 04 be b3 7a 34 3d
       0.021934425 0.041222572 -0.12947735 0.044062328
0000e0 de 74 4e bd 75 63 5b bc b6 81 69 3d a5 b9 8f 3c
       -0.050404422 -0.013390412 0.057008468 0.017544577
0000f0 9e 7d 2c bc ed d0 f6 bd ca 6b 09 bd c8 43 4a bf
       -0.010527996 -0.12051568 -0.03355006 -0.79009676
000100 e2 32 4e be 26 73 9d bd 71 1c e7 3d 7d 86 ef 3e
       -0.20136598 -0.076879784 0.11284722 0.46782294
000110 8e e3 aa bc aa 9a 25 3e 8d 5e 4a 3d bc 91 a1 bd
       -0.02086046 0.16172281 0.049406577 -0.07889125
000120 ee b2 73 3d ca 4c 80 bd 17 c0 de bc ee b4 75 bb
       0.059496813 -0.06264646 -0.027191205 -0.0037491876
000130 17 0c 04 3d 39 9a 94 bd ff 1d a7 bc 92 ab 1d be
       0.032238092 -0.07255978 -0.020400045 -0.1539748
000140 a7 c0 ae bc 67 cf ab bb 4a 06 2d 3d 58 5e 22 bd
       -0.021332098 -0.00524323 0.042242326 -0.039640754
000150 95 4f 66 bc 35 45 7d 3e 01 ab 28 3e 93 ab c2 3d
       -0.01405706 0.24733432 0.16471483 0.095053814
000160 24 7e 2c be 72 c7 26 3d c3 c9 1f 3d d3 88 07 3f
       -0.16844994 0.04071755 0.039010774 0.5294315
000170 a5 03 08 bf 61 b7 0b bc c9 29 18 3d 32 25 3c bd
       -0.5313056 -0.008527608 0.037149224 -0.04593391
000180 24 47 91 bd 38 33 2b bc bf 77 41 3c 67 3d 64 bd
       -0.07093647 -0.010449223 0.011808335 -0.05572262
000190 96 a3 18 3a fa c0 21 bd c7 75 1f 3b 61 07 91 bc
       0.0005822716 -0.039490677 0.0024331675 -0.017703714
0001a0 5a 09 0c 3d 2e 8f 19 bd 55 30 94 bd 38 7e 2a 3c
       0.034188606 -0.037490062 -0.07235781 0.010406069
0001b0 fe 94 78 3c 38 82 96 be d2 64 21 bb 79 cc 90 bd
       0.015172241 -0.29396224 -0.0024626744 -0.0707025
0001c0 1f a1 dc 3c cb d8 c9 3e a8 e9 a8 bd 14 ff 46 bc
       0.026932297 0.39423212 -0.082476914 -0.012145776
0001d0 01 db 18 3c d0 5f d6 3c 81 62 a8 3e 04 6f 60 bd
       0.009329558 0.026168734 0.32887653 -0.054793373
0001e0 bf d8 3d 3d 5b 2c 8e bd 24 f8 31 bf d5 e7 1f bd
       0.046349283 -0.06942054 -0.6951926 -0.03903945
0001f0 28 be 9a bd df df 24 bd f0 7d 3c 3f 08 0b e9 bd
       -0.07555801 -0.040252563 0.73629665 -0.11379057
