models/bound_detect/fieldboundary.onnx (onnx, 81767 bytes, 50 tensors)

DeepFieldBoundary/stage4-branch3-reduction/Conv2D_weights_fused_bn f4 [16, 48, 1, 1]
0	0xbc6e92e8	-0.014561392
1	0x3d205f05	0.039153118
2	0xbc90a814	-0.01765827
3	0xbcd9830c	-0.026551746
4	0xbc94984e	-0.01813903
5	0xbd87320e	-0.06601344
6	0xbc876ca2	-0.016531292
7	0x3cb20ac1	0.021733643
8	0xbcf6b7d9	-0.030116962
9	0x3ce10a03	0.027470594
10	0xbc974c29	-0.018468933
11	0xbce7e220	-0.028306067
12	0xbd9c3d78	-0.07628912
13	0x3d661ec0	0.05618167
14	0xbcce3ff4	-0.02517698
15	0xbdc6c996	-0.09706418
16	0xbd02a0a4	-0.03189148
17	0x3ce2e95c	0.027699165
18	0x3d42cbad	0.04755752
19	0xbdd2f5b6	-0.10300772
20	0x3bc07fa7	0.0058745923
21	0xbcb2a9f5	-0.021809557
22	0xbd64c630	-0.05585307
23	0xbd1f4cb7	-0.03889152
24	0xbd8eeb67	-0.06978493
25	0xbd4319ca	-0.047632016
26	0xbc0d7aec	-0.008635264
27	0xbc36a5f6	-0.011147967
28	0xbd7f63a9	-0.062350903
29	0x3c31424f	0.010819032
30	0xbd1fcead	-0.03901546
31	0xbd94e291	-0.072697766
32	0xbbc34f3c	-0.005960373
33	0xba88efa2	-0.0010447393
34	0xbce79b9c	-0.028272443
35	0x3c3419ab	0.010992448
36	0xbd8c0996	-0.06837766
37	0xba9f5a50	-0.0012157653
38	0x3a86bbed	0.0010279395
39	0xbd94a0bc	-0.0725722
40	0xbcaac2b9	-0.020844804
41	0x3d1b6b15	0.03794392
42	0xbc19626d	-0.009361845
43	0xbc233979	-0.009962433
44	0xbc7fba2b	-0.015608351
45	0xbd0be413	-0.034153055
46	0x3cbf8338	0.023378
47	0x3b94493d	0.0045253322
48	0x3d47c229	0.04876915
49	0xbdd0d03b	-0.10195967
50	0x3e1a9e36	0.15099415
51	0xbd6c983e	-0.057762377
52	0xbd697612	-0.056997366
53	0x3d464942	0.048409708
54	0xbe49bed3	-0.197017
55	0x3c5306d3	0.012880045
56	0xbdda565b	-0.10661002
57	0x3d591d25	0.05300631
58	0xbd35c710	-0.044379294
59	0xbd4b5914	-0.0496455
60	0x3db935fb	0.09043499
61	0xbc91af58	-0.017783806
62	0x3d8336ab	0.064069115
63	0x3c49e59d	0.0123228105
64	0xbd481735	-0.048850257
65	0x3bd8dcb5	0.006618107
66	0x3c05e0be	0.0081712585
67	0x3dbf1684	0.093304664
68	0xbd3a8caa	-0.045544304
69	0xbe0d2970	-0.13785338
70	0x3dd4a5d3	0.10383191
71	0xbe196614	-0.14980346
72	0x3e5176ac	0.20455426
73	0xbe009b87	-0.12559329
74	0xbd518d8a	-0.051160373
75	0x3d0c1d45	0.0342076
76	0xbe06d3b7	-0.131667
77	0x3d2c766d	0.042105127
78	0xbd66068e	-0.056158595
79	0xbda25ffc	-0.07928464
80	0x3da211da	0.07913561
81	0x3d8325e8	0.064037144
82	0xbe113aee	-0.14182636
83	0xbdaaddce	-0.08343087
84	0x3de3f885	0.11131386
85	0xbd86fd22	-0.0659125
86	0xbd0dd481	-0.034626488
87	0xbe163f2a	-0.14672533
88	0x3cfc31f0	0.03078553
89	0xbdd0057c	-0.10157296
90	0xbd8d293f	-0.06892633
91	0xbdcc6731	-0.0998062
92	0xbdcfa642	-0.10139133
93	0xbd3f64a7	-0.04672685
94	0x3d823bed	0.06359086
95	0xbcb4d2c7	-0.022073163
96	0xbe6b5814	-0.22982818
97	0x3e66ac45	0.22526653
98	0x3e9d4958	0.3072002
99	0x3dc182c7	0.09448772
100	0xbea43e4e	-0.32078785
101	0xbe61bba1	-0.22044231
102	0x3e53f580	0.2069912
103	0xbe0a874b	-0.13528173
104	0x3e754c38	0.23954856
105	0x3e12f8ff	0.14352797
106	0xbe9d0b07	-0.30672476
107	0xbe8aa80c	-0.27081335
108	0x3c0df761	0.008664937
109	0xbc95f311	-0.01830438
110	0xbd8bf67e	-0.06834124
111	0xbea2b57c	-0.31779087
112	0x3d4c17f1	0.04982752
113	0xbe8de932	-0.27716976
114	0xbcd9e095	-0.026596347
115	0xbdfe17ea	-0.12406905
116	0x3e33c55f	0.1755576
117	0x3e6a762d	0.22896643
118	0xbe49dfba	-0.19714251
119	0xbc3029c1	-0.010752142
120	0x3e00a9a0	0.12564707
121	0x3e2cf301	0.16889574
122	0x3d1ddab5	0.038538653
123	0xbd03055a	-0.031987526
124	0xbc48747d	-0.012234804
125	0x3e062ba7	0.1310259
126	0xbd27b572	-0.040944524
127	0xbe594d8c	-0.21220988
128	0x3df5f090	0.12008774
129	0xbe3809e1	-0.17972519
130	0x3e5eb87d	0.21750064
131	0x3e79475b	0.24343626
132	0x3dced13a	0.100985005
133	0xbdd257c1	-0.10270644
134	0x3ece5370	0.40298033
135	0x3e03603e	0.12829682
136	0xbd72ebef	-0.059307035
137	0xbbcde04d	-0.0062828423
138	0x3e6392ad	0.22223921
139	0x3dab54c9	0.08365781
140	0xbe50f3f7	-0.20405565
141	0x3cfb0d31	0.030645939
142	0xbe16c95d	-0.14725251
143	0x3d15f0cf	0.036606606
144	0xbda75403	-0.08170321
145	0xbb1fae6a	-0.0024365433
146	0xbc8c0e83	-0.017096763
147	0x3d0df9d8	0.034662098
148	0xbdff0955	-0.12452952
149	0x3d40aae5	0.047037978
150	0xbdbf429d	-0.09338877
151	0x3d73f8e7	0.059563544
152	0x3c933ed1	0.01797429
153	0xbd7baa7f	-0.061441895
154	0xbcd438e6	-0.025906038
155	0xbdc9e511	-0.09858144
156	0xbd7c7107	-0.06163123
157	0x3dfc7e41	0.123287685
158	0xbbc9293e	-0.0061389497
159	0x3caa8f4a	0.020820279
160	0xbc80e9bf	-0.015736459
161	0x3c0d5950	0.008627251
162	0xbd0b5656	-0.034017883
163	0xbda970ba	-0.08273454
164	0xbdac45f7	-0.08411782
165	0xbc94d6e3	-0.018168872
166	0x3ca325d2	0.019915495
167	0x3d1f7fdf	0.038940307
168	0x3d4ab10d	0.049485255
169	0xbd504acd	-0.050852586
170	0xbcba74ce	-0.022760775
171	0x3cd1d5ad	0.025614584
172	0x3d0068fa	0.031350113
173	0xbdbf1574	-0.09330264
174	0xbcf037b1	-0.02932343
175	0x3c567efb	0.013091798
176	0x3c811009	0.015754716
177	0x3d9ae21b	0.075626574
178	0xbd95bffa	-0.07312007
179	0xbdee61e4	-0.11639765
180	0x3c26fce0	0.010192126
181	0xbda99de8	-0.08282071
182	0xbc9878da	-0.018612314
183	0xbdb070dc	-0.08615276
184	0x3d871fb2	0.06597842
185	0x3cbff4df	0.023432193
186	0x3d8e9904	0.06962779
187	0xbd71f793	-0.059073996
188	0x3d435493	0.047688078
189	0xbe081431	-0.13288952
190	0xbd873502	-0.06601907
191	0x3d7a157e	0.061055653
192	0xbdcb14e8	-0.09916097
193	0x3d8a88ee	0.067643985
194	0xbd9cac6b	-0.076500736
195	0xbd292580	-0.04129553
196	0x3d8d6286	0.069035575
197	0xbde72f22	-0.11288287
198	0xbbb30ac3	-0.0054639294
199	0xbc44e6ee	-0.012017949
200	0x3dbb1a80	0.09135914
201	0xbd29818d	-0.041383315
202	0xbdc78f0b	-0.0974408
203	0x3c9e7185	0.01934124
204	0xbda62669	-0.08112795
205	0x3d962083	0.0733042
206	0xbd449794	-0.04799612
207	0xbd791049	-0.060806546
208	0x3d836458	0.064156234
209	0xbd91718a	-0.07101734
210	0xbbbe7259	-0.005811971
211	0xbc23511a	-0.009968067
212	0x3d056774	0.032569364
213	0x3d123795	0.03569754
214	0xbe23c919	-0.15994681
215	0x3d88f118	0.0668661
216	0xbe2ea5c3	-0.1705542
217	0x3d354f43	0.044265043
218	0x3de17df7	0.11010354
219	0xbdb0295d	-0.086016394
220	0x3dc4ae59	0.09603567
221	0x3d7b4f10	0.061354697
222	0xba6defad	-0.0009076547
223	0xbe050c06	-0.12992868
224	0x3a00e4b7	0.00049168937
225	0x3d3b3fe3	0.045715224
226	0xbd9a9fd7	-0.07550018
227	0xbd8026bd	-0.06257389
228	0xbd667cec	-0.05627148
229	0x3d617a64	0.05504836
230	0x3dd069df	0.10176443
231	0x3c8026ac	0.01564344
232	0x3b3d21db	0.002885929
233	0x3a522a7e	0.0008017196
234	0x3dbf8a43	0.09352543
235	0x3d9c7b6d	0.07640729
236	0x3d1ee2d2	0.03879053
237	0xbd0e2195	-0.034699995
238	0xbc167ac3	-0.009184542
239	0xbd1f248c	-0.038853213
240	0xbdcf27ed	-0.10115037
241	0x3d61f200	0.05516243
242	0xbd9c9b4c	-0.07646808
243	0xbc996e8c	-0.01872947
244	0xbd0afc3b	-0.033931952
245	0xbd1dd7e1	-0.038535956
246	0x3b4ceb11	0.003126804
247	0x3d17a436	0.037021838
248	0xbd30ce86	-0.043165706
249	0x3dc4478d	0.0958396
250	0x3d98eab1	0.07466639
251	0xbdc3280d	-0.095291235
252	0xbcee407f	-0.029083489
253	0xbd01db97	-0.031703558
254	0x3bdd73c1	0.0067581837
255	0x3dcdc6a0	0.1004765

DeepFieldBoundary/stage4-branch3-reduction/Conv2D_bias_fused_bn f4 [16]
0	0x3f16190d	0.58631974
1	0x3f26504a	0.6496626
2	0xba618500	-0.00086028874
3	0x3f0c48e4	0.5479872
4	0x3e1f4f1e	0.15557525
5	0xbedab766	-0.42718047
6	0xbee1942c	-0.4405836
7	0xbe091a76	-0.13389
8	0xbf1e1548	-0.6175122
9	0xbc0c63e0	-0.008568734
10	0xbf2f0c6c	-0.6837833
11	0x3f546ca5	0.8297828
12	0x3f3cbaa0	0.7372227
13	0xbeecef87	-0.46276495
14	0x3e8516cf	0.25993964
15	0xbe5aba86	-0.21360216

DeepFieldBoundary/stage4-branch2-reduction/Conv2D_weights_fused_bn f4 [8, 48, 1, 1]
0	0xbe615320	-0.22004366
1	0xbe86a522	-0.2629786
2	0xbe2253f3	-0.15852337
3	0xbdd39af0	-0.10332286
4	0xbe7f5083	-0.24933057
5	0x3d3738ea	0.04473201
6	0x3cfe9d79	0.031080948
7	0x3e02b57b	0.12764542
8	0x3bebe3c4	0.0071987826
9	0x3e014d18	0.12627065
10	0x3d95432b	0.07288202
11	0xbdc3bdd2	-0.0955769
12	0xbe1312e5	-0.14362676
13	0x3e7c16b0	0.2461803
14	0xbe05af69	-0.13055195
15	0xbd4e29a1	-0.05033267
16	0xbd388a44	-0.045053735
17	0xbcffed9b	-0.031241229
18	0xbdc2e38e	-0.09516059
19	0x3d8bcddb	0.06826373
20	0xbd4e0668	-0.05029908
21	0xbd8d3f32	-0.06896819
22	0xbc852fd6	-0.016258162
23	0xbda3c28c	-0.07996091
24	0xbb5f8c72	-0.0034110812
25	0xbdcfb242	-0.10141422
26	0xbc7b790c	-0.015348684
27	0x3e32db87	0.17466556
28	0xbdfd5e3a	-0.12371488
29	0xbd4b6ae1	-0.049662475
30	0xbe2e79d9	-0.17038669
31	0xbe8bd3f8	-0.27310157
32	0xbe3dc6cd	-0.18532868
33	0x3c717733	0.014737892
34	0xbdc9413e	-0.09826897
35	0xbe3ae44c	-0.18251151
36	0x3e14505b	0.14483778
37	0x3d33d229	0.043901596
38	0xbc37019f	-0.01116982
39	0x3c87e384	0.01658798
40	0xbde26e80	-0.110562325
41	0x3dd7300d	0.10507212
42	0x3cf863ad	0.030320967
43	0xbdada284	-0.08478263
44	0xbdc5a902	-0.09651376
45	0x3e11fe4a	0.1425716
46	0xbd9d46b0	-0.07679498
47	0x3e06c6d1	0.1316178
48	0x3e7da3a9	0.24769463
49	0x3d810df6	0.06301491
50	0xbdf33107	-0.118745856
51	0x3d82c090	0.06384385
52	0xbbf49494	-0.007464001
53	0xbe181c70	-0.14854598
54	0xbd431b1f	-0.047633287
55	0x3cec1e8b	0.028823158
56	0x3e4b785a	0.19870129
57	0x3d6ddcec	0.058072016
58	0xbdb5feb4	-0.088864714
59	0xbd9a05cb	-0.07520636
60	0xbe3c7f7a	-0.18408003
61	0xbd2cc2eb	-0.042178076
62	0xbc6ac5ae	-0.014329357
63	0xbe55b9a5	-0.20871599
64	0xbd06cd4a	-0.032910623
65	0xbdcd2fa3	-0.100188516
66	0xbca33ddf	-0.019926963
67	0x3b90d1c5	0.0044195377
68	0x3e3ae321	0.18250705
69	0x3c641829	0.013921776
70	0x3d9f7485	0.07785896
71	0xbdc81a0a	-0.097705916
72	0xbe0762df	-0.1322131
73	0x3d957963	0.07298543
74	0x3dd91793	0.106001996
75	0x3dba4862	0.09095837
76	0xbdfbdcb8	-0.12297958
77	0x3d02bf6b	0.03192083
78	0xbbe7ed05	-0.0070778155
79	0xbdff20b9	-0.12457413
80	0xbdf75c72	-0.120781794
81	0xbdc7d4a9	-0.097573586
82	0xbd8041db	-0.06262561
83	0xbe19a83c	-0.15005583
84	0x3df3cdcf	0.11904489
85	0x3e1e4205	0.15454872
86	0x3e0c355f	0.13692234
87	0xbd80d80b	-0.06291207
88	0x3d3d550f	0.046223696
89	0x3ca1f30b	0.019769212
90	0x3dbb2a5e	0.0913894
91	0x3dc29fec	0.09503159
92	0xbd60cfc9	-0.05488566
93	0x3d9a1563	0.075236104
94	0xbc20f600	-0.009824276
95	0x3ad958d5	0.001658226
96	0xbd2e4271	-0.042543832
97	0x3e523553	0.20528154
98	0xbe5ce816	-0.21572909
99	0x3e352912	0.17691448
100	0x3e343246	0.17597303
101	0xbe8a4ef3	-0.27013358
102	0xbd181d5e	-0.03713738
103	0x3dca0dfb	0.09865948
104	0xbd4b8a7f	-0.049692627
105	0xbc2caf4e	-0.010539843
106	0xbe406b3b	-0.18790905
107	0x3d920484	0.071297675
108	0xbe6c2b05	-0.23063286
109	0x3d04fa03	0.032464992
110	0xbe67a43b	-0.22621243
111	0x3d4fd2f2	0.050738283
112	0x3d64f23d	0.05589508
113	0xbe177b0d	-0.14793034
114	0xbca4f207	-0.020134939
115	0xbe1fe3a8	-0.15614188
116	0xbe0fcad9	-0.14042224
117	0xbdab375a	-0.08360167
118	0xbe47a18a	-0.19495216
119	0xbd7c400c	-0.061584517
120	0xbdad52f3	-0.08463087
121	0x3df5fb48	0.12010819
122	0xbc9e4daf	-0.019324152
123	0x3dce75ad	0.100810386
124	0x3d4f5e64	0.050627127
125	0x3e363dfd	0.17797084
126	0x3d6832a1	0.05668891
127	0xbd596675	-0.053076226
128	0xbcc6226c	-0.024186336
129	0x3d7e8b1a	0.062144376
130	0xbd86fada	-0.06590815
131	0xbcb6ba47	-0.02230562
132	0xbdc8727e	-0.09787463
133	0x3deef858	0.116684616
134	0xbd07616e	-0.0330519
135	0xbc8a4d0d	-0.016882444
136	0x3ddac2d3	0.10681691
137	0xbbbfd0d7	-0.005853753
138	0xbdf797d8	-0.12089509
139	0x3cbe6241	0.02324021
140	0xbe143d55	-0.14476521
141	0x3db515b5	0.08842031
142	0x3d3f29cf	0.04667073
143	0x3e3ed70a	0.18636718
144	0x3df161a9	0.11786205
145	0xbd7d82d0	-0.06189233
146	0xbda2b78f	-0.07945167
147	0xbd5f76c1	-0.054556612
148	0xbe70042a	-0.23439088
149	0xbdaa4e2d	-0.08315692
150	0x3d888e8b	0.06667813
151	0x3d568486	0.052372478
152	0xbb8bc735	-0.0042656907
153	0x3dc6d798	0.0970909
154	0xbe2778ac	-0.16354626
155	0x3d0c4da1	0.03425372
156	0xbda83018	-0.08212298
157	0xbca018da	-0.0195431
158	0x3acc0163	0.0015564378
159	0xbd9e5d75	-0.07732669
160	0xbd8b4936	-0.06801073
161	0x3d251de7	0.04031172
162	0x3bbaa2b4	0.0056956653
163	0xbe183d3d	-0.1486711
164	0x3e150f2f	0.14556573
165	0x3d6f04f4	0.058354333
166	0xbc832ff2	-0.016014073
167	0x3ce29ef7	0.027663691
168	0xbcad9e58	-0.021193668
169	0xbd7ebd51	-0.062192265
170	0x3e118906	0.14212427
171	0x3d8ee470	0.06977165
172	0x3d055ff9	0.03256223
173	0xbe12011a	-0.14258233
174	0x3c833ca7	0.016020132
175	0xbdf17499	-0.11789817
176	0xbd8929e0	-0.0669744
177	0xbdb64742	-0.0890031
178	0x3d37a84d	0.04483824
179	0x3dbb64fc	0.091501206
180	0xbd1efc07	-0.03881457
181	0x3dcc4070	0.09973228
182	0x3da15a55	0.078785576
183	0xbd7531db	-0.059862
184	0x3e142373	0.14466648
185	0xbdbfb60d	-0.09360895
186	0x3cff637a	0.031175364
187	0x3dc84097	0.097779445
188	0x3df920ad	0.121644355
189	0xbd60785d	-0.054802287
190	0xbde6cb25	-0.112692155
191	0x3b8081ea	0.003921737
192	0xbea3a82a	-0.31964236
193	0xbed75e6c	-0.42064226
194	0xbec96a4d	-0.39338914
195	0x3d6a9cff	0.05727863
196	0xbe8c4fda	-0.27404672
197	0xbdcda17c	-0.10040566
198	0xbc541d3b	-0.012946422
199	0x3eb4c978	0.35309958
200	0x3e1938bc	0.14963049
201	0xbe4a6c54	-0.19767886
202	0x3d54b6ba	0.051932074
203	0x3e54cee2	0.20782045
204	0xbe4d5392	-0.20051411
205	0x3e6fd61e	0.23421523
206	0x3e41daf5	0.18931182
207	0xbe5f14b3	-0.2178524
208	0xbd8a0f5d	-0.067412116
209	0xbe0481bd	-0.12940116
210	0xbe6e54c3	-0.23274522
211	0xbe6bf520	-0.23042727
212	0x3e2e78aa	0.17038217
213	0x3d7346a9	0.05939356
214	0x3cbe0f3e	0.023200627
215	0x3e913b2c	0.28365457
216	0x3dc2de8b	0.09515103
217	0xbe65b1ee	-0.22431156
218	0xbdb463a3	-0.08808067
219	0x3d88edce	0.06685983
220	0xbe66b3f8	-0.2252959
221	0xbcaed2cd	-0.021340752
222	0x3df3720b	0.11886986
223	0xbd992fb2	-0.074798
224	0x3e312a19	0.17301215
225	0xbe4bd752	-0.19906357
226	0x3eaa3389	0.33242443
227	0x3e1e7c6b	0.15477149
228	0x3c3f061c	0.011659171
229	0x3e231015	0.15924104
230	0xbe719952	-0.23593643
231	0xbe3d6061	-0.18493797
232	0xbaf71de7	-0.0018853516
233	0xbcb980fa	-0.022644509
234	0xbd1b7df9	-0.037961934
235	0x3e5acb5c	0.21366638
236	0xbcf3e118	-0.029770419
237	0xbe506d55	-0.20354207
238	0x3dcdb78e	0.10044776
239	0xbe07bba5	-0.13255174
240	0xbda2f97e	-0.07957743
241	0xbc93e50d	-0.018053556
242	0xbdf82c2f	-0.12117802
243	0xbe13410a	-0.14380279
244	0xbe8d9b77	-0.27657673
245	0xbeadbba0	-0.3393221
246	0xbe62c49c	-0.22145313
247	0xbda29ec5	-0.07940439
248	0xbdfc68a3	-0.12324645
249	0xbdf7d6bd	-0.12101505
250	0xbd761ddf	-0.06008708
251	0xbd2c8ba4	-0.04212536
252	0xbe63eeac	-0.22259015
253	0x3e3f359a	0.18672791
254	0xbe55833e	-0.20850846
255	0xbded5c0e	-0.11589824

DeepFieldBoundary/stage4-branch2-reduction/Conv2D_bias_fused_bn f4 [8]
0	0x3f8fae8e	1.1225145
1	0x3e7b2b3e	0.24528214
2	0x3f090577	0.53523964
3	0x3ec08723	0.376031
4	0x3f32cde3	0.6984541
5	0x3feb23c9	1.8370296
6	0x3fb64ba9	1.424184
7	0x3ecf0abc	0.40437877

DeepFieldBoundary/stage4-branch2-conv/Conv2D_weights_fused_bn f4 [16, 8, 3, 3]
0	0xbcd86327	-0.026414467
1	0xbc31652b	-0.010827343
2	0xbd84755d	-0.06467698
3	0xbcc48b19	-0.023992108
4	0xbd1477a8	-0.036246926
5	0x3dd7a5aa	0.10529645
6	0x3d01b203	0.031663906
7	0x3d119043	0.03553797
8	0x3ce4831b	0.027894547
9	0x3b59f81f	0.0033259464
10	0x3c8e9831	0.017406555
11	0x3d64d4f5	0.055867154
12	0xbd146b49	-0.036235128
13	0x3ceeb40d	0.02913859
14	0x3c7e94e4	0.015538428
15	0xbe5f284f	-0.2179272
16	0xbdc9d869	-0.0985573
17	0xbda8b58e	-0.08237754
18	0x3dd3a0b7	0.10333388
19	0x3cbd5168	0.023110107
20	0x3cba22cd	0.022721672
21	0x3b5ea63a	0.003397359
22	0x3e35a4b8	0.17738616
23	0x3dca69fd	0.09883497
24	0xbe2ae612	-0.16689327
25	0xbe435d89	-0.1907865
26	0xbe2fa39b	-0.17152254
27	0x3cfd01fd	0.030884737
28	0x3d6e5645	0.05818774
29	0x3da9e5e1	0.08295799
30	0xbcf728d1	-0.03017083
31	0xbcd76c36	-0.026296716
32	0xbdcf81bb	-0.10132166
33	0xbdfa737d	-0.12229059
34	0xbe63e66d	-0.22255869
35	0xbe969535	-0.2941071
36	0x3cdd593c	0.02702009
37	0x3d1d3d4b	0.03838853
38	0xb9cae42f	-0.00038698452
39	0xbcd1aae9	-0.025594192
40	0xbda76cca	-0.08175047
41	0xbcff96ab	-0.031199774
42	0x3d57410e	0.052552275
43	0x3dac13d9	0.08402223
44	0xbdd70a8a	-0.10500057
45	0xbd0210d4	-0.03175433
46	0xbd0ae81d	-0.033912767
47	0x3d1b6ec8	0.037947446
48	0xbdcc97ec	-0.09989914
49	0xbdb30de2	-0.08742882
50	0xbe090281	-0.13379861
51	0x3d1b0b74	0.03785272
52	0x3d59a9d6	0.053140484
53	0xbce9a422	-0.028520647
54	0x3d81f22d	0.063450195
55	0x3dbedea9	0.09319813
56	0xbcbf5ced	-0.02335974
57	0x3d7e0c39	0.062023375
58	0x3d10ddd0	0.035367787
59	0xbd0eae7e	-0.034834377
60	0x3df31895	0.11869923
61	0x3db81e66	0.08990173
62	0x3d8d7d9a	0.06908722
63	0x3c112e4e	0.008861138
64	0xbcf74ec3	-0.030188924
65	0xbdca3348	-0.09873062
66	0xbc70df8d	-0.014701736
67	0xbd1ab5e6	-0.037771128
68	0x3b9cb223	0.0047819777
69	0xbdd568f7	-0.10420411
70	0xbe072251	-0.13196684
71	0xbe027997	-0.12741695
72	0xbcce09a2	-0.025151078
73	0x3cdcb2d5	0.026940743
74	0x3963c59a	0.0002172202
75	0x3c283371	0.010266171
76	0xbdb6b20c	-0.089206785
77	0xbc979ccc	-0.018507384
78	0xbbb7ccf9	-0.0056091514
79	0x3db6e328	0.08930045
80	0x3c697d50	0.014251068
81	0xbdd641a6	-0.1046174
82	0xbde86660	-0.113476515
83	0xbdf0f897	-0.11766165
84	0xbd2c2e25	-0.042036194
85	0xbcbdcdc4	-0.023169406
86	0xbd8c31cf	-0.06845438
87	0x3c09af2f	0.008403583
88	0x3d247a58	0.04015574
89	0x3da5e752	0.081007615
90	0xbd86705e	-0.06564401
91	0x3c1272e4	0.008938525
92	0xbd20bddd	-0.039243568
93	0x3cca79d9	0.024716305
94	0x3d1b7b08	0.03795913
95	0xbca503a9	-0.020143347
96	0x3d6390f4	0.05555816
97	0xbd7ff55f	-0.062489863
98	0xbd1dff0e	-0.038573317
99	0xbdfcc386	-0.12341981
100	0xbda1b4eb	-0.078958355
101	0xbdd2dbc3	-0.102958225
102	0xbc9546cd	-0.018222237
103	0x3d8f45af	0.06995713
104	0x3ce80a80	0.02832532
105	0xbbf618ad	-0.007510266
106	0x3c9c5bf8	0.019086823
107	0xbc57e2fc	-0.013176676
108	0xbe18c09e	-0.14917228
109	0xbdb90110	-0.09033406
110	0xbdce843f	-0.10083818
111	0xbd292d0b	-0.041302722
112	0xbc9d8bb7	-0.01923166
113	0xbdd8cae6	-0.10585575
114	0xbd11da8c	-0.035608813
115	0xbd4a6652	-0.049413987
116	0xbd089a78	-0.033350438
117	0xbd5ad8fd	-0.053429592
118	0xbc7822d1	-0.01514502
119	0xbb61ecfd	-0.0034473531
120	0xbd0bf547	-0.03416946
121	0x3d97ee50	0.074185014
122	0xbc1e5c2a	-0.009665528
123	0x3df46a90	0.11934388
124	0x3bea8ceb	0.007157912
125	0x3ce988a7	0.028507544
126	0xbd9c985f	-0.0764625
127	0x3d70f10d	0.058823634
128	0xbdad688d	-0.08467207
129	0xbc66dc1b	-0.014090563
130	0xbca8b1c9	-0.020592587
131	0xbcd03c7b	-0.025419464
132	0xbca5bd22	-0.020231787
133	0x3b5c7bb0	0.003364306
134	0x3dd17faa	0.10229428
135	0xbdd5fbe1	-0.10448433
136	0xbcf6344f	-0.03005424
137	0xbd0b482d	-0.03400438
138	0xbc8ff2b1	-0.017571779
139	0x3c9a7543	0.018854743
140	0xbca94e84	-0.020667322
141	0xbcdf7a7f	-0.02728009
142	0xbbfd8479	-0.0077367392
143	0x3d2e20d0	0.04251176
144	0xbd8c0cb8	-0.068383634
145	0xbdd19b21	-0.102346666
146	0xbd498230	-0.049196422
147	0xbd335a45	-0.04378726
148	0xbb2c9682	-0.0026334827
149	0x3cf8820a	0.030335445
150	0xbd969b65	-0.07353858
151	0xbe389431	-0.1802528
152	0xbe1023d9	-0.14076175
153	0x3c5ed687	0.013600952
154	0xbe01f0cf	-0.12689517
155	0xbddb82f1	-0.107183345
156	0x3a69847f	0.0008907988
157	0xbdadceba	-0.084866956
158	0x3cf1f330	0.029534906
159	0xbd847042	-0.06466724
160	0xbd487bcd	-0.04894619
161	0xbdeec59e	-0.11658786
162	0x3d5e561c	0.05428134
163	0xbce21642	-0.027598504
164	0x3a39ebd0	0.0007092329
165	0xbd8c0ecf	-0.06838762
166	0xbc80a717	-0.015704675
167	0xbdaf1cd1	-0.08550418
168	0xbd92b228	-0.07162887
169	0x3c92f600	0.017939568
170	0xbcccc911	-0.02499822
171	0x3a075cdd	0.0005163679
172	0xbb9e5948	-0.0048324205
173	0xbd87d279	-0.06631941
174	0x3d0f2f0e	0.034956984
175	0xbd9cf1f9	-0.0766334
176	0x3b950b72	0.0045484835
177	0xbd56509e	-0.052322976
178	0xbe21b124	-0.1579023
179	0xbda95fb1	-0.08270205
180	0xbda8d8fd	-0.08244512
181	0xbdd949ad	-0.10609756
182	0xbdf97af2	-0.12181653
183	0xbc8b3a36	-0.01699553
184	0xbd24fa75	-0.040277917
185	0x3ded685b	0.1159217
186	0xbdb5c41b	-0.08875295
187	0xbdf2e477	-0.118599825
188	0xbd86cbf3	-0.06581869
189	0x3d072c81	0.033001427
190	0xbcf7be7e	-0.030242201
191	0x3cfe452e	0.031038847
192	0xbdae16c6	-0.085004374
193	0xbc0b6fbb	-0.008510525
194	0xbdc60763	-0.09669378
195	0xbbabd0fe	-0.0052434197
196	0xbdbc7c6e	-0.092034206
197	0x3ab24ba5	0.0013602866
198	0xbbc52357	-0.0060161757
199	0x3d8c671a	0.068556026
200	0x3d1e8d6a	0.03870908
201	0xbd9fa32f	-0.07794797
202	0x3c56ac78	0.013102643
203	0xbd729ae1	-0.059229735
204	0x3e1f3734	0.15548402
205	0x3cda6fd0	0.026664644
206	0x3dc7231e	0.09723495
207	0x3c466aee	0.012110455
208	0xbd9e5ef5	-0.07732955
209	0xbd4710c4	-0.048599973
210	0x3c515230	0.012775943
211	0xbd19a8da	-0.037514545
212	0xbd4d0732	-0.05005569
213	0xbbaddd85	-0.005305948
214	0xbd5324bc	-0.051548705
215	0xbd04cfa0	-0.03242457
216	0xbe4ebf8b	-0.20190255
217	0xbe630f5d	-0.2217383
218	0xbe33661c	-0.1751942
219	0xbe24a898	-0.16079938
220	0x3d928b80	0.07155514
221	0x3d401015	0.046890337
222	0x3df82c37	0.12117808
223	0x3e5a1b62	0.21299508
224	0x3da8d46e	0.08243643
225	0x3d9fc05c	0.078003615
226	0x3dce67a5	0.100783624
227	0x3ca72e29	0.020407753
228	0x3d7f8165	0.06237926
229	0x3d844e1c	0.06460211
230	0x3da75abe	0.081716046
231	0xbe1be2ce	-0.15223238
232	0xbe3e3a51	-0.18576933
233	0xbe087bf2	-0.13328531
234	0xbd3515c5	-0.044210214
235	0xbd94d8b9	-0.07267899
236	0xbd7ba3b8	-0.06143543
237	0xbe54f4f9	-0.20796575
238	0x3cc0d41b	0.02353864
239	0xbe40fcac	-0.18846387
240	0xbe1e8aad	-0.15482588
241	0xbbdd20b2	-0.0067482824
242	0xbdde8949	-0.10866029
243	0xbc29bd87	-0.010360128
244	0x3e328af4	0.17435819
245	0x3d3eda38	0.04659483
246	0xbd945b5e	-0.072439894
247	0xba344858	-0.0006877235
248	0xbb279fea	-0.0025577494
249	0xbddb984d	-0.107224084
250	0xbda2cb95	-0.079489864
251	0x3d98ea78	0.07466596
252	0x3dcd9f2b	0.100401245
253	0x3e00ca55	0.12577184
254	0x3e122bdf	0.14274548
255	0x3e130ef7	0.14361177

DeepFieldBoundary/stage4-branch2-conv/Conv2D_bias_fused_bn f4 [16]
0	0x3f044f3d	0.5168341
1	0x3f2cfa72	0.6756965
2	0x3f2e6eb6	0.6813768
3	0x3b0b7700	0.0021280646
4	0x3f74dff6	0.9565424
5	0xbf8f9325	-1.121678
6	0xbf7621bb	-0.9614522
7	0xbf6f2195	-0.9341062
8	0x3dc11e33	0.09429588
9	0x3fb4c968	1.4123964
10	0x3e901f5e	0.2814893
11	0xbf1781ed	-0.59182626
12	0x3ea1a122	0.31568247
13	0xbeac4176	-0.33643693
14	0x3eba1478	0.3634374
15	0x3e771606	0.24129495

DeepFieldBoundary/stage4-branch1-reduction/Conv2D_weights_fused_bn f4 [4, 48, 1, 1]
0	0xbd9f66d0	-0.07783282
1	0xbe9112d0	-0.28334665
2	0xbc171ea8	-0.009223618
3	0xbdcaee4e	-0.09908734
4	0xbe28031c	-0.16407436
5	0xbc2d7be1	-0.010588617
6	0xbe322bfc	-0.17399591
7	0x3e0c55a2	0.13704541
8	0xbe02205c	-0.12707657
9	0x3e0b36f8	0.13595188
10	0x3d5fbddf	0.054624435
11	0xbda4c34d	-0.08045063
12	0x3de4d154	0.11172739
13	0x3db735d9	0.089458175
14	0x3af7259b	0.0018855812
15	0xbe011b20	-0.12608004
16	0xbe1ff4a9	-0.15620674
17	0x3d29e4e7	0.041478064
18	0xbd05a43e	-0.032627337
19	0xbd1e5f0b	-0.03866486
20	0xbdff049a	-0.124520496
21	0xbc56cc1d	-0.013110188
22	0x3db1910b	0.08670243
23	0xbdbe510d	-0.09292803
24	0xbdbacc74	-0.091210276
25	0xbe1fcc0b	-0.1560518
26	0xbdfcdbb0	-0.123465896
27	0xbc12bd2f	-0.008956238
28	0xbdae04f0	-0.084970355
29	0xbcc7864d	-0.024356032
30	0xbe2db125	-0.16962107
31	0x3d2be7be	0.041969053
32	0x3cf43140	0.02980864
33	0x3dd3407f	0.10315036
34	0xbb09fe95	-0.0021056284
35	0xbd7b085e	-0.061287276
36	0xbca2772e	-0.01983222
37	0xbd015c7e	-0.031582348
38	0x3d5be6d1	0.05368692
39	0xbc8896fb	-0.016673556
40	0x3c4591a1	0.012058646
41	0x3c789afd	0.015173671
42	0x3cd40da9	0.02588542
43	0x3bc55053	0.0060215383
44	0xbd68bfa4	-0.056823388
45	0x3be174c6	0.0068803756
46	0xbc83f9a6	-0.016110253
47	0xbd94612a	-0.07245095
48	0xbda9ae27	-0.0828517
49	0x3d539137	0.05165216
50	0x3e658355	0.2241338
51	0xbe101d38	-0.14073646
52	0x3e166263	0.14685969
53	0x3dcbf247	0.0995832
54	0xbca9ed00	-0.020742893
55	0x3e4292ef	0.19001363
56	0xbdb63953	-0.088976525
57	0xbe682047	-0.22668563
58	0x3eaa0d68	0.33213353
59	0xbe29963d	-0.16561218
60	0x3decb0be	0.115571484
61	0xbe66c6b3	-0.22536735
62	0xbe3b87b7	-0.1831349
63	0x3de0fd06	0.109857604
64	0x3da038d0	0.07823336
65	0x3deb4e88	0.11489588
66	0xbd83612e	-0.0641502
67	0x3ddf8a5e	0.10915063
68	0xbdaf609b	-0.08563348
69	0xbe2bd17d	-0.16779132
70	0x3c8370de	0.01604503
71	0x3cb48294	0.02203492
72	0x3da5f6f2	0.08103742
73	0x3cf1c96a	0.029514987
74	0xbe31f813	-0.17379789
75	0x3e1b0645	0.1513911
76	0xbd27245d	-0.040806163
77	0x3d97eef6	0.07418625
78	0xbd8f11bf	-0.06985807
79	0x3de145a0	0.10999608
80	0x3da517fa	0.08061214
81	0x3c1fa36c	0.009743553
82	0x3b09eae0	0.0021044537
83	0x3cea2864	0.028583713
84	0xbd721b37	-0.059107985
85	0xbe2a6a3f	-0.16642092
86	0xbe063fa7	-0.13110219
87	0xbc363f37	-0.01112347
88	0x3cf241e9	0.029572444
89	0x3d71217f	0.058869835
90	0xbd5f3e10	-0.054502547
91	0x3d79d1d4	0.060991123
92	0xbcf20199	-0.029541777
93	0xbcef13d3	-0.029184258
94	0x3cc6a542	0.024248723
95	0xbcd6f3ae	-0.026239242
96	0xbe7268aa	-0.23672739
97	0xbe3a7d37	-0.18211828
98	0xbd0af5d6	-0.033925854
99	0x3d7839c7	0.060601976
100	0xbe084314	-0.13306838
101	0x3e4783fb	0.1948394
102	0xbe75879e	-0.23977515
103	0xbcd89d5c	-0.026442222
104	0xbd83203b	-0.06402632
105	0xbd1064c8	-0.035252362
106	0x3dd05489	0.10172374
107	0x3be2dd96	0.0069233878
108	0x3dd93f53	0.10607781
109	0xbd9826f6	-0.07429306
110	0xbaee44bd	-0.0018178445
111	0xbd168a21	-0.036752824
112	0xbd16eb90	-0.036845744
113	0xbd2478ec	-0.040154383
114	0x3d118412	0.035526343
115	0xbdc165cd	-0.09443245
116	0xbcb0781b	-0.021541646
117	0xbe206141	-0.156621
118	0x3e05eedc	0.13079399
119	0x3de11dbf	0.10992002
120	0xbd79deb0	-0.061003387
121	0xb9e71d23	-0.00044081462
122	0xbd658277	-0.056032624
123	0x3c3af839	0.01141172
124	0xbd315160	-0.043290496
125	0x3cbe5c19	0.023237275
126	0xbd739726	-0.05947032
127	0xbb66be91	-0.0035208801
128	0x3d263753	0.040580105
129	0x3cca25f6	0.024676304
130	0x3c864a2e	0.016392794
131	0x3d5de085	0.054169197
132	0xbd1616c2	-0.036642797
133	0xbcc52d8a	-0.024069566
134	0xbd9241a5	-0.07141427
135	0x3da9df45	0.082945384
136	0x3c4b78e3	0.012418958
137	0x3cc80621	0.024416985
138	0xbc9b0d60	-0.018927276
139	0xbcd9f73a	-0.026607145
140	0x3d271536	0.040791713
141	0x3c896a22	0.01677424
142	0xbd94e47f	-0.07270145
143	0xbcaaee82	-0.020865683
144	0x3d9dcb76	0.07704823
145	0x3cd01151	0.025398882
146	0xbdad84a2	-0.08472563
147	0xbd656bb3	-0.056010913
148	0xbd8c13b3	-0.06839695
149	0xbd0d9e54	-0.03457482
150	0x39e7c5f5	0.00044207243
151	0xbcb26385	-0.02177597
152	0x3ccbc923	0.024876183
153	0x3d046252	0.032320328
154	0xbd8e72d9	-0.06955499
155	0xbd29ee21	-0.041486863
156	0xbe1e65f8	-0.15468585
157	0x3c1d4f12	0.009601371
158	0x3cadaab4	0.021199562
159	0xbe0aa771	-0.13540436
160	0xbd22d616	-0.03975495
161	0x3ca2d843	0.019878512
162	0x3d6050a9	0.054764424
163	0xbda4776a	-0.08030589
164	0x3d8269ce	0.06367837
165	0xbd25378e	-0.040336184
166	0xbd55992b	-0.052148025
167	0x3c1d22c6	0.00959081
168	0x3baf8cba	0.005357352
169	0x3d1d6e4a	0.038435258
170	0xbccee7f6	-0.025257092
171	0xbca70630	-0.020388693
172	0xbc9c3bbe	-0.019071456
173	0xbd46835f	-0.04846513
174	0x3ce22f67	0.027610494
175	0xbd8a0fbe	-0.06741284
176	0x3b1699f6	0.0022979951
177	0x3cfba430	0.03071794
178	0xbda0c371	-0.078497775
179	0xbd0471fc	-0.032335266
180	0xbc9577a7	-0.018245531
181	0xba02a343	-0.00049834343
182	0x3d54c65c	0.051946983
183	0xbda16cb0	-0.078820586
184	0x3d8b4f19	0.06802196
185	0x3d86712a	0.06564553
186	0x3da82ea1	0.08212019
187	0x3d868d1f	0.065698855
188	0xbd7c8b54	-0.06165631
189	0xbcd108e9	-0.025516944
190	0xbd541c13	-0.051784586
191	0x3d455d7a	0.04818485

DeepFieldBoundary/stage4-branch1-reduction/Conv2D_bias_fused_bn f4 [4]
0	0x3f69f4e2	0.91389287
1	0x3dc69695	0.0969669
2	0x3eeaa575	0.4582936
3	0x3e5ef770	0.21774077

DeepFieldBoundary/stage4-branch1-conv2/Conv2D_weights_fused_bn f4 [16, 8, 3, 3]
0	0xbdfc65bc	-0.12324092
1	0xbd77eaf2	-0.060526796
2	0xbcdbde1c	-0.026839308
3	0x3ce82b03	0.028340822
4	0xbc1db4fd	-0.0096256705
5	0xbc8d48c3	-0.01724661
6	0xbe185d6e	-0.1487939
7	0xbe315c3d	-0.17320342
8	0x3b7273a6	0.0036995201
9	0xbd7f58f9	-0.06234071
10	0xbd1139bf	-0.03545546
11	0xbda04843	-0.07826283
12	0xbae1463d	-0.001718707
13	0xbca33159	-0.019920992
14	0x3d13c364	0.03607501
15	0xbdb0c8c3	-0.08632042
16	0xbc084e10	-0.008319393
17	0x3b086583	0.0020812459
18	0xbc9bd98f	-0.019024638
19	0xbd581e4f	-0.05276328
20	0x3c7296b7	0.014806441
21	0xbce0bdea	-0.027434308
22	0xbd516355	-0.05112012
23	0xbdf1d44b	-0.1180807
24	0xbd272eb0	-0.04081601
25	0x3e090d51	0.13383986
26	0x3d819d85	0.063288726
27	0xbdb48fe1	-0.08816505
28	0xbd9578e1	-0.072984464
29	0xbe0f2278	-0.13977993
30	0xbda0370f	-0.078230016
31	0xbd27d91e	-0.040978543
32	0x3bec603d	0.007213621
33	0x3dfe2037	0.12408488
34	0xbcb5eef5	-0.02220867
35	0x3cc49429	0.02399643
36	0x3d80cb5b	0.06288787
37	0xbcda0ffa	-0.026618946
38	0x3c06627e	0.008202193
39	0x3d42db44	0.04757239
40	0xbc81296e	-0.015766826
41	0x3c38b302	0.011273148
42	0x3d039e6b	0.0321335
43	0x3cf3e874	0.029773928
44	0xbda94d6c	-0.0826672
45	0xbdead56f	-0.114664905
46	0xbe100c42	-0.14067176
47	0xbda73b32	-0.081655875
48	0x3c77be24	0.015121017
49	0x3d0cb4c8	0.034352094
50	0xbaba4950	-0.0014212523
51	0x3d445028	0.047928005
52	0x3ce352ef	0.027749507
53	0x3e104caa	0.14091745
54	0x3bfd938d	0.0077385367
55	0xbd8c4b64	-0.06850317
56	0x3c19b244	0.009380881
57	0xbd6f6cd6	-0.058453403
58	0x3d8ba6a3	0.06818893
59	0x3d3424f1	0.043980543
60	0x3d6236ec	0.05522816
61	0x3d841bf1	0.06450642
62	0x3db95977	0.09050267
63	0x3db37a7f	0.08763599
64	0xbc77ceec	-0.015125018
65	0x3d7c292a	0.061562695
66	0xbe4a3641	-0.19747259
67	0xbe281ebb	-0.16417973
68	0xbc8305cf	-0.01599398
69	0xbdb7970e	-0.08964358
70	0xbdee2ce0	-0.11629653
71	0xbd856b73	-0.06514635
72	0xbde65c67	-0.11248093
73	0xbd976bc4	-0.073936015
74	0xbdc98c3d	-0.098412015
75	0xbd8f2e1a	-0.06991215
76	0xbba2d008	-0.004968647
77	0xbc8ae78e	-0.016956117
78	0x3cc9b07f	0.024620293
79	0xbd96c641	-0.07362033
80	0xbd971422	-0.07376887
81	0xbc79ed79	-0.015254372
82	0x3c47039a	0.012146855
83	0xbd1ca51b	-0.038243394
84	0x3db8e351	0.09027732
85	0x3c9e7b72	0.019345973
86	0x3d4aae77	0.04948279
87	0xbcf23ec3	-0.029570943
88	0x3c6b20c8	0.014351077
89	0xbc745b9c	-0.0149144195
90	0xbd0ec766	-0.03485813
91	0x3d2feec9	0.042952333
92	0xbcc672c8	-0.024224654
93	0x3d9811c1	0.07425261
94	0x3d4eda0d	0.05050092
95	0x3c080d0c	0.008303892
96	0x3d2f9b7b	0.042872887
97	0xbb826576	-0.0039793802
98	0x3e5730aa	0.21014658
99	0xbc001f35	-0.00781994
100	0xbc513d75	-0.012771
101	0xbddaf2c4	-0.10690835
102	0xbd01aa29	-0.031656418
103	0xbdb28c4a	-0.08718164
104	0xbdd62a6f	-0.10457312
105	0x3df94818	0.12171954
106	0x3dc49c20	0.09600091
107	0x3ce9701e	0.028495844
108	0x3c9f6d3e	0.01946127
109	0xbdaf0450	-0.085457444
110	0xbdd6e6ac	-0.10493216
111	0x3d8319ec	0.064014286
112	0x3cfd21f7	0.030899985
113	0x3cff052e	0.0311304
114	0x3e2ee932	0.17081144
115	0x3d366309	0.04452804
116	0x3d7378e2	0.059441455
117	0xbc2bbcfd	-0.01048207
118	0x3cc2ad57	0.023764296
119	0x3d659dbe	0.056058638
120	0xbbc8a691	-0.006123372
121	0xbdd7e70f	-0.10542118
122	0xbdb9813d	-0.09057853
123	0xbd8479e3	-0.064685605
124	0xbde6ddc7	-0.112727694
125	0xbe3c9360	-0.18415594
126	0x3c86b2f6	0.016442757
127	0xbd7882a3	-0.06067146
128	0x3d4e074b	0.050299924
129	0xbdb5a04a	-0.08868463
130	0xbd18ae0b	-0.037275355
131	0xbda32535	-0.07966081
132	0x3cd1c8de	0.025608476
133	0x3ce74a17	0.028233571
134	0xbd089f37	-0.033354964
135	0x3d6b9361	0.0575136
136	0x3d88ab47	0.066732936
137	0x3d1ab2a4	0.03776802
138	0x3d9af234	0.07565728
139	0x3d5fc7e4	0.05463399
140	0x3df20c33	0.11818733
141	0xbe341c46	-0.1758891
142	0xbe2f882f	-0.17141794
143	0xbe226396	-0.15858302
144	0xbd21f4f9	-0.039540265
145	0x3bf2a86e	0.0074053323
146	0xbd4cfec3	-0.050047647
147	0xbea57f00	-0.32323456
148	0xbec22b7c	-0.379238
149	0xbe778346	-0.2417117
150	0x3c9f0f78	0.019416556
151	0x3d3c834f	0.046023663
152	0xbd243d96	-0.040097795
153	0xbdc0626e	-0.09393774
154	0x3c48074c	0.012208771
155	0xbe046938	-0.12930763
156	0xbde19505	-0.11014751
157	0xbd895b07	-0.06706815
158	0xbd11c468	-0.0355877
159	0x3de66524	0.1124976
160	0x3da52d8e	0.080653295
161	0xbc6f4f59	-0.01460632
162	0xbce50042	-0.027954224
163	0xbbc52d1f	-0.0060173417
164	0xbe46d490	-0.19417024
165	0x3d410c27	0.04713073
166	0x3e451c06	0.19248971
167	0x3e3e6d56	0.18596396
168	0x3e7f4148	0.24927247
169	0x3e957845	0.2919332
170	0x3e2a48c6	0.16629323
171	0xbe4aa8f7	-0.19791017
172	0xbe0e33ea	-0.13886991
173	0xbc171314	-0.009220857
174	0xbe2c9527	-0.16853772
175	0xbd67d83a	-0.056602694
176	0xbe22d178	-0.15900218
177	0xbd97465b	-0.07386466
178	0xbe5a8f11	-0.21343638
179	0x3c0412eb	0.008061151
180	0x3e02ce53	0.12774019
181	0x3dad012a	0.08447488
182	0xbcab89b5	-0.020939687
183	0x3d11f092	0.035629816
184	0xbd8c616b	-0.068545185
185	0xbcad6e3e	-0.021170732
186	0x3e165078	0.14679134
187	0x3dfa152d	0.1221107
188	0x3dabd5a8	0.08390361
189	0xbe5b86ca	-0.21438137
190	0xbe3a52cb	-0.18195646
191	0xbdc12813	-0.09431472
192	0xbd5ce77d	-0.053931702
193	0xbd5a720f	-0.05333143
194	0xbe64f32f	-0.22358392
195	0xbe268b77	-0.16264139
196	0xbd4b88a1	-0.049690846
197	0x3dc8bc24	0.0980151
198	0xbe7cf155	-0.24701436
199	0xbe030d4b	-0.1279804
200	0x3c18e931	0.009332941
201	0xbe87abba	-0.26498204
202	0xbdc0441c	-0.09387991
203	0xbe03f70b	-0.12887208
204	0x3e0d6ca8	0.1381098
205	0xbe21720b	-0.1576616
206	0x3d987e6b	0.07445987
207	0x3dabff50	0.08398306
208	0x3db75909	0.08952529
209	0xbc80c1f6	-0.015717488
210	0xbdc4833b	-0.09595343
211	0x3e467e75	0.19384177
212	0xbce366bc	-0.027758949
213	0xbdcc7834	-0.099838644
214	0x3df02131	0.11725081
215	0x3de4462d	0.111461975
216	0xbdeb765a	-0.11497183
217	0xbdf64c90	-0.12026322
218	0xbd329870	-0.043602407
219	0xbee77e06	-0.45213336
220	0xbe89cd09	-0.26914242
221	0xbef0a36f	-0.4699969
222	0x3e502de2	0.20330003
223	0xbcd0addf	-0.025473533
224	0xbdee70b6	-0.11642592
225	0xbed3bc10	-0.41354418
226	0xbe202f03	-0.15642934
227	0xbe9ee7ff	-0.31036374
228	0xbf16151e	-0.5862597
229	0x3d08ecf3	0.033429097
230	0x3de8297b	0.11336037
231	0x3d9369fe	0.07197951
232	0x3e92eb1b	0.28694996
233	0x3e950f1e	0.29113096
234	0x3e2021a3	0.15637831
235	0x3e8499e2	0.25898653
236	0xbf154918	-0.5831466
237	0xbe8c06d6	-0.27348965
238	0xbe01cd57	-0.12675987
239	0xbe922e3b	-0.28550896
240	0xbc9fcf11	-0.019507917
241	0xbe817ead	-0.25291958
242	0xbe93e86a	-0.28888255
243	0xbea5dc53	-0.32394657
244	0x3cd0ebcf	0.025503067
245	0x3cbb8c89	0.02289416
246	0xbf089ebd	-0.53367215
247	0xbda169f5	-0.07881538
248	0xbe8f9016	-0.28039616
249	0xbe02f537	-0.12788855
250	0xbdfa1da5	-0.122126855
251	0xbe5eccaf	-0.21757768
252	0x3e0eb896	0.13937601
253	0x3e247baa	0.16062799
254	0x3ddb139e	0.10697101
255	0xbd87a865	-0.066239156

DeepFieldBoundary/stage4-branch1-conv2/Conv2D_bias_fused_bn f4 [16]
0	0x3f2e4993	0.68081015
1	0x3e9e36ee	0.30901283
2	0x3fab8ac2	1.340172
3	0x3f969d7c	1.176681
4	0xbfe01130	-1.7505245
5	0x3ef0e4f4	0.47049677
6	0x3f40046b	0.7500674
7	0x3f1d4024	0.61425996
8	0x3f354fec	0.70825076
9	0x3fdd00b2	1.7265837
10	0x3f70bcbd	0.9403799
11	0x3cf37c00	0.029722214
12	0x3db7ac3a	0.089683965
13	0x3e96890a	0.29401428
14	0x3f9c1c82	1.21962
15	0xbf22c73a	-0.63585246

DeepFieldBoundary/stage4-branch1-conv1/Conv2D_weights_fused_bn f4 [8, 4, 3, 3]
0	0x3ddc31e3	0.10751703
1	0xbcc039d2	-0.02346507
2	0xbdf2bccf	-0.11852419
3	0xbdb0b739	-0.08628697
4	0x3cf8e5ef	0.030383078
5	0xbce2c961	-0.027683916
6	0x3c8dc37b	0.017305126
7	0xbe4cf637	-0.20015799
8	0x3d8dd637	0.06925624
9	0xbd78872f	-0.060675796
10	0x3e5cd954	0.21567279
11	0xbccd485f	-0.025058923
12	0xbe996409	-0.29959133
13	0xbe953cfb	-0.29148087
14	0xbe95ceaf	-0.2925925
15	0xbe1e0ffe	-0.15435788
16	0xbe0acaf2	-0.1355398
17	0xbe8862f4	-0.26637995
18	0xbe0c6972	-0.13712099
19	0x3e13dfb0	0.14440799
20	0x3d474634	0.048650935
21	0x3d9aa11d	0.07550261
22	0x3cb76506	0.022387039
23	0xbbe5b9e1	-0.007010684
24	0x3c0fcc48	0.008776732
25	0x3e5f7afd	0.2182426
26	0xbd90183c	-0.07035872
27	0xbd0c658b	-0.034276526
28	0xbdb5cce1	-0.08876968
29	0xbe1d8a2e	-0.15384743
30	0x3e54e932	0.20792082
31	0x3d7143e5	0.05890264
32	0x3cca4daa	0.024695236
33	0xbd6bfb2a	-0.057612576
34	0xbe7f90a5	-0.24957521
35	0xbdcbf196	-0.09958188
36	0x3c959c63	0.018263048
37	0x3cd59af6	0.026074868
38	0xbd0fa40e	-0.035068564
39	0xbe2d592f	-0.16928552
40	0xbbe72455	-0.0070538917
41	0xbd250a02	-0.040292747
42	0x3d99d085	0.07510475
43	0xbb15e84e	-0.002287406
44	0x3e33ab80	0.17545891
45	0x3ba360ea	0.0049859183
46	0x3e107446	0.14106855
47	0xbdccf3d0	-0.10007441
48	0xbdfa8719	-0.12232799
49	0xbe470a44	-0.1943751
50	0xbdbeb4ed	-0.093118526
51	0xbe76a86c	-0.24087685
52	0xbe171521	-0.14754154
53	0xbe3d73e1	-0.18501236
54	0x3a59ec9b	0.000831315
55	0x3d67a3c7	0.056552675
56	0xbda4b230	-0.08041799
57	0xbe46350c	-0.19356173
58	0x391312c7	0.00014026008
59	0xbdcc921a	-0.09988804
60	0xbe32b229	-0.17450775
61	0xbd944256	-0.07239215
62	0x3a9e0708	0.0012056539
63	0x3c5849ca	0.013201186
64	0x3d747aac	0.0596873
65	0x3df9319a	0.12167664
66	0xbda1a7b7	-0.07893317
67	0xbda3cb75	-0.07997791
68	0xbd900985	-0.07033066
69	0x3d9d28f1	0.076738246
70	0x3cd2b36a	0.025720317
71	0xbc1f6979	-0.0097297365
72	0x3e105687	0.14095508
73	0xbd6089ea	-0.054819025
74	0xbcbb4c2f	-0.022863476
75	0xbb61f377	-0.0034477392
76	0x3e55f005	0.20892341
77	0x3c95d833	0.018291568
78	0x3d252456	0.040317856
79	0xbd8ae9da	-0.06782885
80	0xbe974f77	-0.29552814
81	0xbd7a2adb	-0.061076026
82	0xbe77a3d9	-0.24183597
83	0xbe0aac50	-0.13542295
84	0x3d1b480f	0.037910517
85	0x3cbc7726	0.023006033
86	0x3ecde3f8	0.4021299
87	0x3b66505a	0.0035143108
88	0x3daf2f41	0.08553935
89	0x3dab9931	0.08378828
90	0xbd7223ec	-0.05911629
91	0xbc5c81a3	-0.013458642
92	0xbe8355b1	-0.25651315
93	0xbdb77164	-0.089571744
94	0xbe4dcc8d	-0.20097561
95	0x3dcefe26	0.10107069
96	0xbe4b916f	-0.19879697
97	0xbe1ff476	-0.15620598
98	0x3c15130a	0.009098778
99	0x3dbe354b	0.092875086
100	0xbe75f5c9	-0.24019541
101	0x3d933c85	0.071892776
102	0xbe2c3c85	-0.16819961
103	0xbdd30a1d	-0.10304663
104	0xbe11a335	-0.14222415
105	0x3e0bb81e	0.13644454
106	0x3dc721f3	0.09723272
107	0x3d0310bc	0.03199838
108	0x3ea2c1a5	0.31788364
109	0x3ea9096f	0.3301501
110	0x3de36f1f	0.11105179
111	0xbe69e0c3	-0.22839646
112	0x3ec0589b	0.375676
113	0x3e2072eb	0.15668838
114	0xbeb7afab	-0.35876212
115	0x3e1b2e44	0.15154368
116	0xbdad2f4f	-0.08456289
117	0x3e73d5a7	0.2381197
118	0x3d86cc9a	0.065819934
119	0x3da6c280	0.08142567
120	0x3ee8ef5f	0.45495126
121	0x3ed6af6d	0.41930714
122	0x3e6a31ed	0.22870608
123	0x3d5bde6c	0.053678915
124	0xbd2e64a8	-0.042576462
125	0x3c8ceb82	0.017202143
126	0xbd0c725f	-0.03428876
127	0xbe25d1a5	-0.16193254
128	0xbe140273	-0.1445406
129	0xbdf29dc6	-0.11846499
130	0xbcb29685	-0.021800289
131	0xbe603212	-0.218941
132	0xbd8c1d2b	-0.06841501
133	0xbeaf38df	-0.34223077
134	0xbeade242	-0.33961684
135	0x3e5be781	0.2147503
136	0x3dbf3a01	0.09337235
137	0x3e291988	0.16513646
138	0xbc3134ad	-0.010815782
139	0x3d819358	0.06326932
140	0xbe0c17d7	-0.13680969
141	0x3f02e26e	0.51126754
142	0x3ea3a306	0.31960315
143	0x3d39dbc2	0.045375593
144	0xbe460027	-0.19335996
145	0xbe58d8ab	-0.21176402
146	0xbe8bd6c2	-0.27312285
147	0x3ddc2fb6	0.10751288
148	0x3e18baf9	0.14915074
149	0x3c3d74c9	0.011563488
150	0xbdcb7bb5	-0.099357046
151	0xbcfec2f3	-0.031098818
152	0x3c8861a6	0.016648125
153	0xbe0a3d11	-0.13499857
154	0xbe74c399	-0.2390274
155	0xbd4c05d6	-0.049810253
156	0x3e9f681c	0.31134117
157	0xbab6b8e3	-0.0013940599
158	0x3e620552	0.22072342
159	0xbd9e0b1c	-0.07716963
160	0x3e9acf1a	0.3023613
161	0x3c839c4f	0.016065745
162	0xbdb1ffd3	-0.08691373
163	0xbe3d53a6	-0.1848894
164	0xbe0fd61a	-0.14046517
165	0x3d049984	0.032372966
166	0x3e0be874	0.13662893
167	0x3d4d44a6	0.050114296
168	0x3e1835a9	0.1486422
169	0x3de337b5	0.1109461
170	0xbe26b773	-0.16280918
171	0xbd9db7f5	-0.07701103
172	0x3d5ed200	0.05439949
173	0x3d4fff40	0.050780535
174	0xbe2c004e	-0.16796991
175	0xbe3d06c5	-0.18459614
176	0xbd3f6408	-0.046726257
177	0xbbcceddc	-0.006253941
178	0x3e17286a	0.1476151
179	0xbdbd067e	-0.09229754
180	0x3c743936	0.014906218
181	0xbdc34715	-0.09535042
182	0x3c482f98	0.0122183785
183	0x3dbd443a	0.09241529
184	0x3c6421ff	0.013924121
185	0x3dec06c4	0.11524728
186	0xbe28e9d3	-0.16495447
187	0x3d5358c9	0.051598344
188	0xbb177d19	-0.0023115335
189	0x3e308d06	0.17241296
190	0x3e21b469	0.15791477
191	0xbd0700f7	-0.032959905
192	0x3d2b9e30	0.041898906
193	0x3e2f2193	0.17102651
194	0x3e8a4bf4	0.27011073
195	0x3e94787a	0.28998166
196	0x3e46dc3b	0.19419949
197	0x3dd18708	0.10230833
198	0x3d8af780	0.06785488
199	0x3ba696a3	0.0050838753
200	0x3e4a0a5e	0.19730517
201	0x3e44605d	0.19177385
202	0x3ddac1e6	0.106815144
203	0x3de643f1	0.112434275
204	0x3de95799	0.11393661
205	0x3e1299ce	0.14316484
206	0x3dfa3067	0.12216263
207	0xbda7c4bb	-0.0819182
208	0x3e235808	0.1595155
209	0xbdf30ee7	-0.11868077
210	0x3d04613f	0.032319304
211	0x3e0e5bb4	0.1390217
212	0xbc8b6a6c	-0.01701852
213	0x3d89e893	0.06733813
214	0x3cb3bd39	0.021940814
215	0xbc074a94	-0.008257527
216	0x3e8ff17b	0.28113922
217	0x3e87e11d	0.26538935
218	0x3e7b5688	0.24544728
219	0xbd9023d9	-0.070380874
220	0x3d9442bb	0.0723929
221	0xbd990985	-0.07472519
222	0xbdfd16c4	-0.12357858
223	0x3e55fb3b	0.20896618
224	0xbe8b04c2	-0.27152067
225	0xbd4305fd	-0.047613133
226	0x3e1082b4	0.1411236
227	0xbda28e06	-0.07937245
228	0x3ec68512	0.387734
229	0x3d87194c	0.06596622
230	0x3eab51f6	0.3346097
231	0xbdd80b20	-0.10548997
232	0x3e5bf7be	0.21481225
233	0x3e1242c2	0.14283279
234	0x3d983f6f	0.07433974
235	0xbbfc284e	-0.0076952344
236	0xbdba5dd0	-0.090999246
237	0xbe64fbdb	-0.223617
238	0xbe40c545	-0.18825252
239	0xbd95e97e	-0.07319926
240	0xbdc96b46	-0.09834914
241	0x3c01592c	0.007894795
242	0xbe2f6d0a	-0.17131439
243	0xbe7f5416	-0.2493442
244	0xbeadcdee	-0.33946174
245	0xbdf5f7d7	-0.12010162
246	0xbe7d1385	-0.24714477
247	0xbe8b7c79	-0.27243403
248	0xbd145e5f	-0.03622281
249	0x3d64fc98	0.055904955
250	0x3ebe82fb	0.37209305
251	0x3d83b682	0.06431295
252	0x3d032480	0.03201723
253	0x3d2a3ae6	0.041560076
254	0x3e092f37	0.13396917
255	0xbe2e1787	-0.17001162

DeepFieldBoundary/stage4-branch1-conv1/Conv2D_bias_fused_bn f4 [8]
0	0x3f721652	0.9456531
1	0x3f58ddba	0.8471333
2	0x3e2be1d8	0.16785371
3	0xbfacb53f	-1.3492812
4	0x3d652ef7	0.055952992
5	0xbf8b01fe	-1.0859983
6	0xbedabba9	-0.42721298
7	0xbe087d9a	-0.13329163

DeepFieldBoundary/stage3-branch3-reduction/Conv2D_weights_fused_bn f4 [16, 48, 1, 1]
0	0x3d7a6b49	0.06113747
1	0x3d255ca2	0.040371545
2	0xbc91f210	-0.01781562
3	0x3d317875	0.043327767
4	0xbc8a339a	-0.016870309
5	0xbce277ec	-0.027645074
6	0x3e37e86a	0.17959753
7	0xbdcbf4b9	-0.099587865
8	0xbcdfa089	-0.027298229
9	0xbdf70ca0	-0.12062955
10	0xbdcb6638	-0.09931606
11	0x3dd3c1c6	0.10339694
12	0x3c18926a	0.009312252
13	0xbe799564	-0.24373394
14	0xbd3ab8af	-0.045586284
15	0x3d541e71	0.051786844
16	0x3e0f7b12	0.14011791
17	0xbd883a24	-0.066517144
18	0x3e081805	0.13290413
19	0x3d15fad4	0.03661616
20	0x3d829710	0.06376469
21	0xbdc43788	-0.09580904
22	0x3d935b73	0.07195177
23	0x3e20be7c	0.15697664
24	0xbce24c7e	-0.027624365
25	0x3c6e9017	0.014560721
26	0xbd0fdac9	-0.03512076
27	0x3d1a0ca4	0.03760971
28	0xbdab6ce5	-0.08370379
29	0x3d32b3d9	0.043628547
30	0x3d3e4676	0.046453916
31	0xbdc83ef4	-0.09777632
32	0x3d04ee01	0.03245354
33	0x3e13f21c	0.14447826
34	0xbe06a5a1	-0.1314912
35	0x3e082bfe	0.13298032
36	0xbe03c460	-0.1286788
37	0x3e184bdd	0.1487269
38	0x3e3835f4	0.17989331
39	0xbe4a73c9	-0.19770731
40	0x3deb7362	0.11496617
41	0xbba3a0f4	-0.0049935523
42	0x3d7b3315	0.061328012
43	0xbcc2638c	-0.023729108
44	0xbd6155b1	-0.055013362
45	0xbdbc4d1c	-0.09194395
46	0x3d745124	0.059647694
47	0xbe22adc8	-0.15886605
48	0xbe3c1e6a	-0.18370977
49	0x3d978e76	0.07400219
50	0xbe354bb5	-0.17704661
51	0x3dd70de7	0.105006985
52	0xbcd62f7a	-0.026145685
53	0x3d4ec3d0	0.05047971
54	0x3d265446	0.040607713
55	0xbe0f23f0	-0.13978553
56	0xbcf6751b	-0.030085137
57	0xbd0ced00	-0.03440571
58	0x3dcfac10	0.1014024
59	0x3d87f0d9	0.06637735
60	0xbcf0a409	-0.029375093
61	0xbe1cf27f	-0.1532688
62	0x3e075232	0.13214949
63	0x3c23b74d	0.009992433
64	0xbd991e07	-0.074764304
65	0xbd9166c8	-0.07099682
66	0xbbd36820	-0.0064516217
67	0xbc2b3d45	-0.0104516195
68	0x3d9a2c7e	0.075280175
69	0x3d39bf13	0.04534824
70	0x3c80693e	0.015675183
71	0xbd653c06	-0.055965446
72	0xbd8082e0	-0.062749624
73	0x3e0ceeb2	0.1376293
74	0x3e11466e	0.14187023
75	0x3e9c6965	0.3054916
76	0xbd48f95b	-0.04906593
77	0xbd851ece	-0.06500016
78	0x3a10d241	0.00055244943
79	0xbd00786f	-0.031364854
80	0xbd9656b2	-0.073407546
81	0xbc7e62f0	-0.015526518
82	0xbda7846d	-0.08179555
83	0xbe244d25	-0.16045053
84	0xbdd778d4	-0.10521093
85	0xbc1188a6	-0.008882677
86	0xbceb4a47	-0.028721942
87	0x3dd71e4d	0.10503826
88	0xbd403732	-0.04692764
89	0xba27a7fc	-0.0006395576
90	0xbd960a13	-0.0732614
91	0x3e1c476e	0.15261623
92	0xbe158117	-0.14600025
93	0x3d5ad7d2	0.05342848
94	0x3cd062a6	0.025437664
95	0x3ddfce83	0.10928061
96	0xbd58afbc	-0.05290197
97	0x3e504c3b	0.2034158
98	0x3d13bceb	0.036068838
99	0xbe372d3c	-0.1788835
100	0x3b83c0bc	0.0040207785
101	0x3e21b6ad	0.15792342
102	0xbdd46dd6	-0.10372512
103	0x3be764cd	0.007061577
104	0xbcd85e70	-0.026412219
105	0x3db14258	0.08655232
106	0x3d889618	0.06669253
107	0x3e20dc12	0.1570895
108	0x3deb33f1	0.114845164
109	0xbe2d3d53	-0.16917925
110	0xbd83d470	-0.064370036
111	0x3dcb4c61	0.099266775
112	0xbd17c995	-0.037057478
113	0xbd5f9095	-0.054581244
114	0x3e1fb7c0	0.15597439
115	0x3d9ef3c6	0.0776134
116	0xbc22b719	-0.009931349
117	0xbd477542	-0.04869581
118	0x3cf5c33a	0.030000318
119	0x3da55622	0.08073069
120	0x3d8145b5	0.06312124
121	0xbcd9b4e8	-0.02657552
122	0xbdd1e8c2	-0.10249473
123	0x3ba14aed	0.004922262
124	0x3c07035e	0.008240549
125	0x3dc405d5	0.09571425
126	0xbda63e46	-0.081173465
127	0x3d35345e	0.044239394
128	0x3dae907c	0.08523652
129	0x3dfc1e81	0.12310506
130	0x3de2173b	0.11039587
131	0xbdb7089a	-0.089371875
132	0x3e054260	0.13013601
133	0xbc1461ec	-0.0090565495
134	0xbd10af6d	-0.03532355
135	0xbcf1c564	-0.029513068
136	0x3e008bb9	0.125533
137	0x3e4a1248	0.19733536
138	0xbd657666	-0.056021117
139	0x3c12dbba	0.00896352
140	0x3bdb7f9c	0.006698562
141	0x3d8069b3	0.062701605
142	0x3c1878c2	0.009306135
143	0xbd1e8ef8	-0.038710564
144	0x3d819e0b	0.063289724
145	0x3db9c74d	0.09071217
146	0xbdad9bec	-0.08477005
147	0x3db69231	0.089146025
148	0xbd6e8941	-0.058236364
149	0x3d69d006	0.057083152
150	0x3d848aea	0.06471808
151	0x3d97000e	0.07373057
152	0xbcb57dfe	-0.022154804
153	0x3e8e4423	0.2778636
154	0xbd376035	-0.044769485
155	0xbd144f9f	-0.036208745
156	0x3bfd5ca2	0.00773199
157	0xbb29a100	-0.0025883317
158	0x3dfbd732	0.122969046
159	0x3e0e0cb9	0.13872041
160	0xbbbebeae	-0.0058210706
161	0xbc5e273c	-0.013559159
162	0x3d85f5e9	0.06541044
163	0x3e58b000	0.21160889
164	0x3c0d5cd9	0.008628094
165	0x3e7bc4f0	0.24586844
166	0xbdd9365d	-0.10606072
167	0x3de886e0	0.1135385
168	0x3d725adc	0.05916868
169	0x3abbb031	0.0014319477
170	0x3e2ebaff	0.17063521
171	0xbdac3eb9	-0.08410401
172	0x3d66b7af	0.056327518
173	0x3db5a14e	0.08868657
174	0x3dfc40b2	0.12317027
175	0xbe7e3c3f	-0.2482767
176	0x3d4d9a39	0.050195906
177	0x3d1ac5ec	0.03778641
178	0xbd701cfb	-0.058621388
179	0xbd32f7db	-0.043693405
180	0x3da0ec8e	0.07857619
181	0xbd2fa395	-0.042880613
182	0xbe0d6a4f	-0.13810085
183	0x3cf800c5	0.030273804
184	0x3cf693a9	0.030099707
185	0xbe164f5e	-0.14678714
186	0xbcf4c5dc	-0.029879503
187	0x3d935695	0.071942486
188	0x3cbf0bee	0.023321118
189	0x3e0cb7da	0.13742009
190	0x3dc80278	0.09766096
191	0x3d011110	0.031510413
192	0xbc9c90e5	-0.01911206
193	0xbd1a286e	-0.037636213
194	0x3ce86526	0.028368544
195	0x3cee1823	0.029064244
196	0xbda6cd9d	-0.08144686
197	0x3e85d4bb	0.26138863
198	0xbd583a02	-0.052789696
199	0xbdac36cf	-0.084088914
200	0xbd5be8d6	-0.053688847
201	0xbba61d28	-0.0050693937
202	0xbe27ba4d	-0.16379662
203	0x3dd6315d	0.10458634
204	0x3d7a665c	0.061132774
205	0x3def1c23	0.116752885
206	0xbd9954cf	-0.07486879
207	0x3df85209	0.12125022
208	0xbe047bb3	-0.12937813
209	0xbdb65975	-0.08903781
210	0x3e23efed	0.16009493
211	0xbdcd7cec	-0.100335926
212	0xbd6aa699	-0.057287786
213	0xbd976c51	-0.073937066
214	0x3e08c3c7	0.13355933
215	0xbd93983d	-0.072067715
216	0xbd539990	-0.05166012
217	0x3c83404f	0.016021876
218	0x3d7c84cb	0.06165008
219	0xbbc429f7	-0.005986448
220	0xbcb29e93	-0.02180413
221	0xbc1b8667	-0.009492493
222	0x3d3a815f	0.045533534
223	0x3d812a18	0.06306857
224	0x3e3b3f2f	0.18285821
225	0xbd54ed43	-0.051984083
226	0xbca3f677	-0.020014985
227	0xbc8741b5	-0.016510824
228	0xbd3aaf68	-0.045577437
229	0xbdce747e	-0.10080813
230	0x3e02cc8e	0.12773344
231	0xbdcefab3	-0.10106411
232	0x3e774752	0.241483
233	0x3cc8ba42	0.024502877
234	0xbd441c9e	-0.047878854
235	0x3d7490ce	0.05970841
236	0xbe5083e3	-0.20362811
237	0xbe28a7ad	-0.16470213
238	0x3df89efb	0.12139698
239	0xbd5444a6	-0.05182328
240	0xbcfb5d4c	-0.030684136
241	0xbdb654b4	-0.089028746
242	0xbe15512d	-0.14581747
243	0x3cfc116b	0.030770024
244	0xbd3816b1	-0.044943515
245	0xbdf7bd86	-0.120966956
246	0x3d793237	0.060838904
247	0xbc54d8e6	-0.012991166
248	0x3b99d5e1	0.004694686
249	0xbd6a8dab	-0.05726401
250	0x3cb93c5b	0.022611788
251	0x3ceac3d4	0.028657831
252	0xbd1978f9	-0.037468884
253	0x3db91103	0.09036448
254	0xbe208473	-0.15675525
255	0x3cb9d928	0.022686556

DeepFieldBoundary/stage3-branch3-reduction/Conv2D_bias_fused_bn f4 [16]
0	0xbe18f714	-0.14938003
1	0xbe393bb8	-0.18089187
2	0xbf4ae809	-0.7926031
3	0xbf93a78a	-1.1535504
4	0x3d28a58c	0.041173503
5	0x3f6557b1	0.8958693
6	0x3ebe5ad6	0.37178677
7	0xbe0849ae	-0.13309357
8	0x3ee949aa	0.45564014
9	0x3faeb396	1.3648555
10	0x3f3178bc	0.6932485
11	0x3ef62484	0.48074734
12	0xbfa58aa4	-1.2932935
13	0x3fd781b9	1.6836463
14	0xbf5e3b86	-0.86809576
15	0x3fb61970	1.4226513
